net.pt (torch, 31791 bytes, 18 tensors)

fc1.fc1.weight f4 [32, 13]
000000 1d fb 55 3c 72 ae 9d 3f 63 25 f4 3d e3 1f 54 be
       0.013060358 1.2318861 0.119211935 -0.20715289
000010 68 bd d7 be 56 ab 24 bd 02 e4 6d 3d a1 c8 03 bf
       -0.42136693 -0.04020246 0.058078773 -0.5147801
000020 7a 10 7e 3d 96 71 3b be c7 c6 14 bd 67 17 08 bd
       0.062027432 -0.18305048 -0.03632238 -0.033225443
000030 da ff 4d 3e 6e a3 f5 3c 10 60 e1 be 18 45 e1 bf
       0.20117131 0.029985156 -0.44018602 -1.7599211
000040 b2 08 87 3e 22 3e 87 3e e7 09 b1 3e 8e d4 2b 3d
       0.26373821 0.2641459 0.34577867 0.041950755
000050 4c 06 e5 3d fe be 80 3e 6e fa d8 3a cd 72 23 bd
       0.11182842 0.25145715 0.0016554126 -0.039904404
000060 e8 18 41 3e 41 59 e9 bd 1e 6f da be 6a 80 70 3e
       0.18857157 -0.11393977 -0.426629 0.23486486
000070 a8 db 5e be 63 26 b7 be 6f 79 23 3e 45 1e 81 3c
       -0.2176348 -0.35771474 0.15964292 0.015761504
000080 7d 2a 70 be cb 98 ff 3d 03 42 59 3e d8 b8 38 bf
       -0.23453708 0.12480315 0.21216588 -0.7215705
000090 58 11 b3 3e 3d a8 6c 3e 03 b3 12 bf 85 25 2d 3f
       0.3497417 0.23111053 -0.573044 0.67635375
0000a0 d3 4b dd 3e d6 ba 95 3e fa 3f 80 3e ad 1d 8e 3b
       0.43221912 0.29244107 0.2504881 0.0043370337
0000b0 22 60 0f bf b9 a0 84 3c 23 07 4b be 13 64 07 3e
       -0.5600606 0.01618992 -0.19826941 0.13221769
0000c0 06 ef a4 3b a4 fa ef bd 19 54 77 3e 1d c9 97 3d
       0.0050333766 -0.11717728 0.24153174 0.07411406
0000d0 29 04 2b be 63 19 8e bf c6 54 48 bd ef 25 ee 3e
       -0.16700806 -1.1101497 -0.04890897 0.46513316
0000e0 b1 3e 08 3f c6 6d 48 bd dc f8 18 3e d3 fb c7 3e
       0.5322066 -0.048932813 0.14938682 0.39059314
0000f0 24 62 d1 3d 9e c8 f3 3d ad 0d bd 3e 6d a1 f7 bc
       0.10223797 0.11903499 0.36924496 -0.030228341
000100 31 3d 4c bd 30 d5 0a 3f ec 4d 38 bd a6 90 5f bf
       -0.049863044 0.5423155 -0.044996187 -0.8733009
000110 d8 6d cb 3e 34 99 2c 3d 35 4b ea 3e 54 24 75 3e
       0.39732242 0.042138293 0.45760503 0.2393964
000120 fa 5b 77 3c bd 26 10 3f e0 03 75 be dc 4a 03 be
       0.0150976125 0.5630911 -0.2392726 -0.12821525
000130 4f 35 ab 3e 49 e1 53 3e c4 cb c5 3e ae 75 c3 3e
       0.3343911 0.20691408 0.38632023 0.3817572
000140 08 9c 29 be d0 fd 17 3e a7 b1 f7 be 37 53 b2 3d
       -0.16563427 0.14842916 -0.48377725 0.08707278
000150 ce f9 60 3d 34 ff ef be 18 14 ca 3d 65 78 50 3e
       0.054925732 -0.46874392 0.09867114 0.20358427
000160 30 06 5b be de 59 83 3e a9 75 6d be f6 9c 6d 3f
       -0.21389079 0.256545 -0.23189415 0.9281763
000170 08 52 9a be 47 cb 1a 3e c5 ff fa bd 0b 46 4e be
       -0.3014071 0.15116607 -0.122558154 -0.20143907
000180 f3 92 a9 bd 36 ef 58 be 82 58 aa be a9 09 91 3e
       -0.082799815 -0.21185002 -0.3327065 0.28327683
000190 e9 64 80 3d d4 c9 52 bc 45 40 6c be 63 5f ef bd
       0.06269247 -0.012865502 -0.23071392 -0.116881154
0001a0 47 8b 0d be a0 89 f2 bc e8 e9 dd be cf ef 9d bc
       -0.13822661 -0.02960664 -0.4334252 -0.019279389
0001b0 2b f3 e0 3d 38 95 69 3e 01 6a e2 3e 0e b3 4d be
       0.109838806 0.22810829 0.442215 -0.20087835
0001c0 61 65 9b 3e 91 84 ff be 9c 47 4c 3e b9 1c 02 3f
       0.30350783 -0.49905828 0.19949192 0.5082508
0001d0 f1 49 04 bf bc 80 35 bf 7f 14 02 be 09 40 02 bf
       -0.51675326 -0.7089956 -0.12703131 -0.5087896
0001e0 28 12 38 be 3f 04 c6 3d f2 06 15 3e df 27 d8 3d
       -0.17975676 0.09668779 0.1455343 0.1055448
0001f0 33 7f af 3e 6c 19 09 3f a0 ea 12 be d8 f2 a3 bd
       0.34276733 0.53554416 -0.14347315 -0.08005303
000200 c4 40 84 3e 95 f7 9f 3e f2 74 33 3f d0 78 48 3f
       0.25830662 0.31243578 0.7010032 0.78309345
000210 57 ec 7f 3e 2d 8e fb 3e cc e9 74 bb e4 93 da be
       0.249925 0.4913191 -0.00373708 -0.42690957
000220 16 9e d9 3c b1 73 97 be 36 93 c4 bc ec 56 19 3e
       0.026564639 -0.29580453 -0.023995977 0.14974564
000230 7d 51 c8 bd 7e d2 ca be 23 04 55 be 3c cc a1 bd
       -0.09781168 -0.39613718 -0.2080236 -0.07900283
000240 aa 1b 5d be b4 dd 37 bf 58 23 c7 bd 8f 40 64 3e
       -0.21592584 -0.7182267 -0.09723538 0.22290252
000250 68 55 dc 3c 9b 07 55 3e 0d 87 6a 3d b0 a2 9a 3d
       0.026896194 0.20803683 0.0572577 0.075505614
000260 ee 8d bb 3e c7 39 83 be c5 d4 c5 3c 7b c7 af 3e
       0.3663172 -0.25630018 0.024149308 0.3433188
000270 6f 88 e5 3e 20 ec da 3d 22 08 01 3e b7 0b 9e 3e
       0.44830653 0.106895685 0.12600759 0.30868313
000280 7f ff 43 be f7 0f 2f bf b9 97 9c 3e 28 ce 0a be
       -0.19140433 -0.68383735 0.30584505 -0.13555205
000290 56 28 c8 3d 7e 7e d2 be 53 fd fd 3d e6 6f 5f be
       0.097733185 -0.4111213 0.124018334 -0.2182003
0002a0 40 74 9d be 97 5b 87 be c1 ab 46 bd 02 a1 8b 3f
       -0.30752754 -0.26437065 -0.04850364 1.0908511
0002b0 e0 4c 1f bc b4 92 57 bd 69 e8 48 bd d1 8e 79 be
       -0.009722918 -0.05263014 -0.04904977 -0.24370886
0002c0 0b 30 82 3d ed 66 de 3d 2f e7 36 bd f5 4b d4 3d
       0.0635682 0.10859475 -0.044654068 0.1036605
0002d0 8a 06 9b 3e ca 8c 51 3e 49 a2 ab bc fb 4e 99 be
       0.30278426 0.20463863 -0.020951407 -0.2994307
0002e0 12 b8 a6 3e 70 44 93 be 50 8c af 3d fd 0d 0b bf
       0.3256231 -0.2876315 0.08571684 -0.5431822
0002f0 c7 91 f1 bd 3a a8 7f be fe 91 61 be d8 7e 10 bf
       -0.11795383 -0.24966517 -0.22028348 -0.5644355
000300 d7 c6 4c 3d ae 77 9e be 36 7c d9 be 06 7e ad 3d
       0.049994316 -0.30950683 -0.42477578 0.08471303
000310 f0 bc 2c 3f 4a 19 1f bd 15 6d ab be d8 60 4d be
       0.67475796 -0.038842477 -0.3348166 -0.20056474
000320 6b 17 66 be 39 d0 5a 3e 96 fe e1 be 4e 95 1a be
       -0.22469871 0.21368493 -0.44139546 -0.15096018
000330 76 26 50 3e 30 a5 a2 be 02 90 d0 bc 23 c7 57 bd
       0.20327172 -0.31766653 -0.025459293 -0.052680146
000340 75 7a cd 3e 1c 71 9f 3e fa ea 44 3e ce ab d1 be
       0.4013249 0.31140983 0.19230261 -0.4095139
000350 88 7c 0e bf 9b 2d b8 3e b1 ef a6 3e 10 4a cd 3d
       -0.5565877 0.35972294 0.32604745 0.10023892
000360 a8 6d 72 be 1f 16 ce bc 1e c6 87 3e 5b a3 54 be
       -0.23674643 -0.025157033 0.2651834 -0.2076544
000370 e7 6d 7d bd fb 9a dc be 0e 5c 45 be 7a 03 b8 be
       -0.06187239 -0.4308699 -0.19273397 -0.35940152
000380 49 1b b9 be dc 12 c3 bc 2a 36 f5 be 11 b8 06 3f
       -0.3615363 -0.023812704 -0.47892886 0.52624613
000390 76 b1 61 3e 1c 5a a5 bd f1 77 1c be 64 8b c8 bc
       0.22040352 -0.080738276 -0.15280129 -0.02448053
0003a0 5e f2 a4 bd c0 25 ed bd 00 9a ba 3e 54 fb 89 3e
       -0.0805404 -0.11579466 0.36445618 0.2694956
0003b0 e4 51 93 3e a5 1b 60 be 23 95 aa 3e 86 a3 ec bc
       0.28773415 -0.21885546 0.33316907 -0.028886568
0003c0 34 d8 21 3e 50 a6 8d be 59 23 ae be bc 57 b7 3e
       0.15805131 -0.2766595 -0.34011343 0.35809124
0003d0 e5 b0 8d bd 49 68 e2 3c 3f 58 a8 3d 77 a2 1f 3f
       -0.069185056 0.027637618 0.082199566 0.62357277
0003e0 67 d2 f4 bd 81 f3 80 be 28 d5 35 3e dc 02 56 3e
       -0.119541936 -0.2518578 0.17757094 0.20899528
0003f0 ad 40 db bd 86 0f 1d 3f d5 26 93 be 84 36 c0 be
       -0.10705695 0.6135181 -0.28740564 -0.37541592

fc1.fc1.bias f4 [32]
000000 7d 58 81 be da 14 a2 3d 3d 71 96 be ca 5a 62 bd
       -0.25262824 0.07914133 -0.2938327 -0.055262364
000010 0c b9 a1 be ea 98 c5 3d a4 7c ae be 35 f1 2e bc
       -0.31586492 0.09648307 -0.34079468 -0.010677625
000020 9b 76 fc be 17 8d 88 3e 8a 12 99 bd 26 98 a7 be
       -0.4930924 0.26670143 -0.07474239 -0.32733268
000030 3d ae d4 3d 56 5b 04 bd 4d dc 3d bf 78 73 d8 be
       0.10384796 -0.032313667 -0.7416428 -0.42275596
000040 c5 80 6e be 8c 29 80 3e 75 9c 02 bf 04 97 c2 bd
       -0.23291309 0.25031698 -0.51019984 -0.0950146
000050 d5 41 48 bd 9a 9d 05 bf 22 68 97 3d f4 82 85 be
       -0.048890907 -0.52193606 0.07392909 -0.26076472
000060 78 17 41 be 03 ce 13 bf c8 41 72 be 7a b5 db bb
       -0.18856609 -0.57736224 -0.23657906 -0.0067049833
000070 75 2b 9e bd ca a4 bf 3d 04 12 ab bd 2c 20 b8 3e
       -0.077231325 0.09357603 -0.083530456 0.35962045

fc1.fc2.weight f4 [32, 32]
000000 93 b6 09 bd 3d 84 ee be a9 04 8a 3e c9 c0 e2 be
       -0.033621382 -0.46585265 0.2695668 -0.44287708
000010 3d 03 31 3f 59 a8 02 be 9f 28 2f 3c 67 ae 2b 3e
       0.69145566 -0.12759532 0.010690837 0.16765748
000020 6a 08 14 3e 06 5c e6 be db 3a a8 3e 8d da fe bd
       0.14456335 -0.44992083 0.32857403 -0.12444029
000030 74 d1 cc bc 06 41 e5 be d0 0e 05 bf 0c 0c 56 3e
       -0.025002219 -0.4477617 -0.5197573 0.20903033
000040 aa 69 2f be 90 98 ab 3d 76 78 1c bd cf 42 0f 3d
       -0.17130151 0.08378708 -0.038200818 0.034975823
000050 75 6e 4e bd da d9 ba bd 13 0c ec 3d 60 a6 07 be
       -0.05039831 -0.09123583 0.115257405 -0.13247061
000060 d3 85 c7 be 76 74 5a be ab 18 cb bd b2 d8 99 3d
       -0.38969287 -0.21333489 -0.099168144 0.075120345
000070 9b a6 65 be 53 52 aa 3d 61 77 99 be 05 cb 9d 3e
       -0.22426836 0.08316483 -0.2997389 0.30818954
000080 c5 60 c2 3e 68 f6 bc 3e d6 f9 24 be 29 7f e6 bd
       0.37964454 0.36906743 -0.1611093 -0.112547226
000090 34 f2 8a 3e 16 88 3b be 7b 83 d1 bd 10 5a 16 bd
       0.2713791 -0.18313631 -0.10230156 -0.036706984
0000a0 64 da 8b be bf 1d 39 3e 07 bd 38 3e 22 d1 f1 3d
       -0.27315056 0.18077753 0.18040858 0.11807467
0000b0 a7 3c 67 3b 2e 50 a9 3e f6 a0 ac bd 24 a1 54 bd
       0.0035283954 0.33068985 -0.08429138 -0.05191149
0000c0 95 d3 6e be df b2 83 3e 61 2f 04 3f a8 0a 2c 3e
       -0.233229 0.25722405 0.51634794 0.1680094
0000d0 03 c0 9a 3e 62 33 9c bd 3a 62 56 be c7 44 28 3d
       0.30224618 -0.07626988 -0.20935908 0.041081216
0000e0 fe 85 db 3e f2 74 29 bd d3 86 c3 be e3 8e 1e be
       0.42875665 -0.041371293 -0.381888 -0.15484194
0000f0 31 f9 2a be 11 f5 33 be c2 6b b7 3e 19 49 f8 bd
       -0.16696621 -0.17573954 0.358244 -0.12123317
000100 95 fd 4f be ad 9d 8d bd a4 29 13 be ff 21 d3 3e
       -0.20311578 -0.0691484 -0.14371353 0.41236874
000110 81 e2 0a bf 39 83 05 3f 5b dd ed be b2 0d 3b be
       -0.5425187 0.52153355 -0.46457943 -0.18266943
000120 dc 6b 39 3d 02 3e da 3d ab e8 9b be 27 78 da 3d
       0.04526888 0.10656358 -0.3045095 0.106674485
000130 b0 0c 7e be 4a a1 c6 bd 88 6e 09 bf d0 76 19 be
       -0.24809527 -0.09698732 -0.5368428 -0.1498673
000140 50 31 be be 7f c6 03 be 84 69 ac be ca 17 27 3e
       -0.37146997 -0.12868689 -0.33674252 0.16317669
000150 51 a2 3a 3e cf 51 3b bd 01 bd b3 3e c6 0c 86 be
       0.18225981 -0.045732316 0.35105136 -0.2618162
000160 ab 4d 31 3d 02 32 9e be 35 f5 e1 3e 76 e2 b2 3e
       0.04328696 -0.30897528 0.4413239 0.349384
000170 6c 5a a6 3e e4 64 e2 3e b8 36 ac bd fa 8d 81 3e
       0.3249086 0.44217598 -0.08408874 0.25303632
000180 11 4c cb 3e 84 04 5b 3e d3 e0 a3 be 9c a1 ad 3e
       0.39706472 0.21388441 -0.32007465 0.3391236
000190 4a c8 b7 3e 43 35 44 be 60 97 89 3e f9 f1 ff bd
       0.35894996 -0.19160943 0.26873302 -0.124973245
0001a0 d1 12 3b bd 27 d3 44 bc 48 8b b9 3e 43 72 73 3d
       -0.04567224 -0.012013233 0.36239076 0.05943514
0001b0 b9 b5 21 bd 92 ec 02 be 0a ad a8 be 7c 36 ad 3e
       -0.039479945 -0.12785557 -0.32944518 0.3383063
0001c0 35 41 ac bd 08 ef c4 bd 6b 49 03 3f 77 76 cb bd
       -0.08410875 -0.09615904 0.512839 -0.09934705
0001d0 0d 28 62 3e a6 33 c8 bd ce 73 bc bd 54 69 87 be
       0.2208559 -0.09775476 -0.092017755 -0.26447546
0001e0 7a 67 93 3e d6 78 58 be 46 59 ed bd 36 c6 02 be
       0.28789884 -0.21139845 -0.11589293 -0.12770924
0001f0 08 78 c0 3e 95 48 b7 3d 38 d0 0a bc 47 5d 3d be
       0.37591577 0.08949391 -0.008472495 -0.18492614
000200 26 69 ae be e3 a9 ea be 05 63 4c 3d 45 20 1e be
       -0.34064597 -0.45832738 0.04989912 -0.15441997
000210 4d 4c 32 be e8 db e3 bd 8a b9 65 3e 93 fa 5b 3e
       -0.17411919 -0.11125928 0.22434059 0.21482305
000220 34 62 86 be 08 18 49 3d b3 ce 76 be d3 27 e1 bc
       -0.26246798 0.049095184 -0.24102287 -0.02748481
000230 28 ec 24 be 91 4f ed ba a7 25 66 3e c6 32 19 be
       -0.16105711 -0.0018105378 0.224753 -0.14960775
000240 4e fe 8b 3e 9a 4e bf be d5 b9 a3 3e 00 de 25 3d
       0.27342457 -0.37364656 0.31977716 0.04049492
000250 60 fe 0b 3c 4f 7e bb be 20 3b 23 3e d1 89 84 3e
       0.008544534 -0.36619803 0.15940523 0.25886396
000260 d4 d8 29 bf 4b ef ad 3e d1 8a 31 bf 79 bb 8c bd
       -0.6634648 0.3397163 -0.6935244 -0.06871695
000270 42 be ea 3e c0 b4 2e 3e 56 4e 84 bf ee 82 36 3e
       0.4584828 0.17061138 -1.0336406 0.17823383
000280 af 8e f0 be 11 26 14 be aa 29 b4 3e 06 06 bb 3e
       -0.4698386 -0.14467646 0.35188037 0.36528033
000290 27 be 04 bf 0c c6 ad 3e be 06 00 bd a5 5d fb 3e
       -0.5185265 0.3394016 -0.03125643 0.49094883
0002a0 a1 35 4d 3e 6c 26 8a be c8 f3 e4 3e 95 4d b3 3e
       0.20039989 -0.2698244 0.4471724 0.35020128
0002b0 b4 04 53 3e 3a 8c 4c be 78 18 25 3f 1f 80 49 be
       0.20607263 -0.19975367 0.6449046 -0.1967778
0002c0 f5 ab e1 3e d6 eb ac 3d 60 3f da 3e 22 09 8e 3e
       0.44076505 0.0844342 0.42626476 0.27741343
0002d0 9f ec 58 be d1 45 d8 3e d5 34 33 3e 49 c4 59 3e
       -0.21184014 0.42240766 0.17500623 0.21266283
0002e0 27 e8 88 bc 91 4c f2 3d 45 5e 9e 3e 7f ab c1 3e
       -0.016712261 0.1183101 0.30931297 0.37826154
0002f0 06 51 e7 bd e9 12 1a 3e 8e 14 ee be 4e 24 f8 bd
       -0.11294751 0.15046276 -0.46500057 -0.121162996
000300 a4 e7 11 bf 83 01 67 3f ec c2 d3 3e 8d 84 e8 bc
       -0.5699408 0.9023668 0.4135965 -0.028383518
000310 78 69 0c 3f d3 db fe 3d c8 65 4c 3d 2f da 41 3e
       0.5484843 0.12444272 0.049901754 0.18930887
000320 f7 8e 6a bd a5 0a 63 3e 04 3d 27 bf a8 81 99 3e
       -0.05726525 0.2217203 -0.6532748 0.29981732
000330 ed bc 6f be 22 53 f2 3c e7 50 9d be 2f b3 06 be
       -0.23411913 0.029580656 -0.30725786 -0.1315429
000340 fe f3 5c bd 20 88 e1 be b8 97 1e 3d eb fa 1a be
       -0.053943627 -0.44049168 0.03871891 -0.1513478
000350 6f ab bb 3d 39 6a af be 7d 3e d7 3e 33 88 d5 3d
       0.09163558 -0.3426073 0.42039862 0.104263686
000360 4b d8 0f 3f 98 9e e4 3d f8 93 2b bf 3d 37 3f 3e
       0.5618941 0.11163062 -0.6702266 0.18673415
000370 ef 89 dd be 81 63 b3 be 76 0c 43 3e 73 d7 c1 bd
       -0.43269297 -0.35036853 0.19047722 -0.09464922
000380 88 5b 52 bf 51 eb be 3e 3f 1f d6 3d 4d 64 cf bd
       -0.82170916 0.37288907 0.104551785 -0.10126553
000390 ed d9 a4 be c0 39 e5 bd a4 b2 b0 3d e5 04 d6 3e
       -0.32197514 -0.111926556 0.08627823 0.4180061
0003a0 37 86 b6 be 6b 62 15 3c df 63 46 bf 1f 4f 79 3b
       -0.35649273 0.009117703 -0.7749614 0.0038041545
0003b0 05 ef 86 be 50 40 67 3e a3 e7 26 bf 53 d2 14 bf
       -0.26354232 0.22583127 -0.651972 -0.5813343
0003c0 4a 49 ec be 48 9e 80 3e 35 86 f3 be cc e2 f0 3e
       -0.46149665 0.2512076 -0.4756333 0.47048032
0003d0 b7 c0 21 bf a5 07 b5 be 61 75 44 bd aa af 35 3d
       -0.63184685 -0.35357395 -0.047963504 0.04435698
0003e0 96 97 80 be fa 98 34 3f 47 74 a9 bd a8 0c 52 3e
       -0.2511565 0.70545924 -0.08274131 0.2051264
0003f0 3c b8 49 bf 92 c8 0d 3d 07 6f 70 3f 33 2c 10 be
       -0.78796744 0.034615107 0.93919414 -0.1407936

fc1.fc2.bias f4 [32]
000000 61 cf 72 3e b4 b7 39 be 9c 7f 28 3f 02 e8 b3 be
       0.23711921 -0.18136483 0.65819716 -0.35137945
000010 1c d0 9c 3e 65 ae ef bb 69 ee c1 bd c6 97 84 ba
       0.30627525 -0.0073144906 -0.09469301 -0.0010116033
000020 36 d9 55 be 20 8e fa 3e e6 a7 79 3d f0 23 d0 3e
       -0.2088364 0.48936558 0.060951136 0.40652418
000030 03 91 95 3d e7 79 35 3f 74 aa 15 3e 99 2b f3 3e
       0.073030494 0.70889133 0.14615804 0.474942
000040 fa 9f a6 3e be 86 da bd b5 6b e2 3e 61 52 a3 3e
       0.32543927 -0.10670231 0.442228 0.31898788
000050 0f d4 f3 3e 36 26 d3 3e a0 a2 2c 3e 93 76 18 bd
       0.47622725 0.4124009 0.16858912 -0.037222456
000060 3a 0f 4e 3e 2e fb 9f 3e 50 88 21 3e 0b 74 57 3f
       0.20122996 0.31246322 0.15774655 0.8416144
000070 c0 1e cf 3c 6c db e4 3d e1 55 a1 3e 07 ba 78 3d
       0.025283217 0.11174664 0.31510833 0.060724284

fc1.fc3.weight f4 [32, 32]
000000 6b b2 af 3d d1 4d 16 be e9 5d 2b bd 83 34 ca bd
       0.085789524 -0.14678122 -0.041837607 -0.09873297
000010 d0 bc 77 3e ea 03 22 3e df 5c 37 3e c4 78 fe 3e
       0.2419312 0.15821806 0.17906521 0.49701512
000020 7a 98 01 bd 28 14 aa 3e d9 0c 39 bd 46 bc 87 be
       -0.031639554 0.33218503 -0.045178268 -0.2651083
000030 c5 54 55 3b 0e 3f 4a 3e 67 ee 87 3e e1 11 0e 3f
       0.0032551747 0.19750616 0.26549074 0.5549603
000040 fb a6 97 bd 66 30 f0 3d 94 b7 bf bc 6b 97 3a 3f
       -0.07404896 0.11727981 -0.023402967 0.72887295
000050 45 40 86 3d 31 8d d9 be 9c 74 0d bf 1f 13 32 3e
       0.06555227 -0.42490533 -0.55256057 0.17390107
000060 0b 6b 03 be 0a 60 72 be 78 0f 14 3e 90 45 9b 3c
       -0.12833802 -0.23669448 0.14459026 0.018954068
000070 10 d5 07 bf 93 2d 5c 3e 47 df da 3d 34 00 77 3e
       -0.5305948 0.2150176 0.10687118 0.24121171
000080 84 83 c3 bd a2 e4 9e bd b6 5d 0a 3f 55 37 01 be
       -0.09546569 -0.07758452 0.5404924 -0.12618764
000090 a3 2d 6a 3c 8f 5c 41 3e 0b a5 0e bf 10 3d 3e 3d
       0.014293107 0.18882965 -0.55720586 0.046444952
0000a0 8c 79 94 be a2 18 59 be 0e ac 12 3f 37 d8 2a 3f
       -0.28998983 -0.21200803 0.57293785 0.6673617
0000b0 a1 58 b5 bd b3 98 18 bd 13 63 a3 3e 6b a2 f9 bd
       -0.08854795 -0.037255 0.31911525 -0.12189182
0000c0 bc f8 d8 3e a0 d2 e3 bc b2 4c ca 3e dc 8b 51 bf
       0.4237727 -0.027810395 0.3951164 -0.81854033
0000d0 4f cc ca 3e 98 74 21 3f 30 5f f8 3e d3 b7 09 3e
       0.39609 0.6306853 0.48510122 0.1344903
0000e0 24 f5 32 3e 17 e2 f9 3e 3c 77 44 3e 51 08 ee 3e
       0.17476326 0.48805305 0.1918611 0.4649072
0000f0 b5 5a 4c 3f d7 92 d5 3b ca f7 95 3e 0f 45 be 3e
       0.7982591 0.006517749 0.2929061 0.37162063
000100 22 cc 57 83 15 0b 5d 83 f4 cb 71 83 f5 b4 67 83
       -6.3417154e-37 -6.4958784e-37 -7.105766e-37 -6.8092527e-37
000110 62 ad 18 83 ff 6d 52 83 32 46 74 83 b0 97 9d 83
       -4.486782e-37 -6.1839723e-37 -7.1785736e-37 -9.262456e-37
000120 54 63 61 83 c1 11 62 83 c3 f0 64 83 43 c6 4b 83
       -6.623558e-37 -6.643581e-37 -6.727956e-37 -5.988393e-37
000130 ee 8c 46 83 01 9b 5e 83 5d b4 2b 83 5b 13 60 83
       -5.834875e-37 -6.541787e-37 -5.045943e-37 -6.5849903e-37
000140 b2 70 58 83 ed 06 63 83 94 bd 71 83 64 42 64 83
       -6.3606063e-37 -6.6717255e-37 -7.104116e-37 -6.707939e-37
000150 55 bb 4a 83 ab 28 6c 83 70 2c 6b 83 08 4b 69 83
       -5.957751e-37 -6.940085e-37 -6.9111305e-37 -6.8558678e-37
000160 de 32 53 83 8c ed 71 83 6b b4 5a 83 54 ae 70 83
       -6.206572e-37 -7.1096225e-37 -6.427155e-37 -7.072978e-37
000170 f7 02 6d 83 09 8e 6f 83 50 10 4c 83 2a 5c c4 02
       -6.9651444e-37 -7.0398836e-37 -5.9968938e-37 2.8852511e-37
000180 a0 7a 73 83 1f 43 7b 83 ba 9a 7d 83 fe 85 74 83
       -7.155205e-37 -7.383932e-37 -7.4527635e-37 -7.185897e-37
000190 04 56 72 83 40 00 80 83 50 73 75 83 6e 07 7a 83
       -7.121615e-37 -7.523221e-37 -7.21314e-37 -7.3476926e-37
0001a0 5a 94 7e 83 2b d0 70 83 96 e3 6f 83 c8 1b 6a 83
       -7.481419e-37 -7.0768626e-37 -7.0497043e-37 -6.879831e-37
0001b0 72 e2 7b 83 5a 7e 7d 83 27 26 71 83 32 ed 76 83
       -7.4022217e-37 -7.449506e-37 -7.086733e-37 -7.256519e-37
0001c0 2c bf 76 83 3c 25 6e 83 cb b3 78 83 8b 61 77 83
       -7.2512357e-37 -6.9984657e-37 -7.308704e-37 -7.269875e-37
0001d0 e4 26 7b 83 15 b5 67 03 61 0f 6c 83 cd 2a 77 83
       -7.3806915e-37 6.809267e-37 -6.937182e-37 -7.263591e-37
0001e0 4f c6 75 83 c2 22 79 83 e4 61 80 83 e7 de 75 83
       -7.2226676e-37 -7.3214423e-37 -7.545638e-37 -7.225491e-37
0001f0 03 e2 7a 83 38 09 72 83 f1 9d 76 83 07 bb 73 83
       -7.3727846e-37 -7.112799e-37 -7.247421e-37 -7.162598e-37
000200 92 2b 80 3e e6 82 5f bd 71 51 1f 3f 24 e3 91 be
       0.25033242 -0.054568194 0.62233645 -0.28493607
000210 80 60 52 be 2c dc 10 3e ae b5 c9 be 97 23 24 bf
       -0.20544624 0.14146489 -0.39396423 -0.64116806
000220 7f 9d 8a 3b f4 cb 4b 3d e9 bc c4 3e c4 82 1e 3f
       0.004230201 0.04975505 0.38425377 0.6191828
000230 9e 5b 3a 3e 53 d5 ab 3e de 56 1e 3d 74 93 0d 3e
       0.18199012 0.3356119 0.03865706 0.1382578
000240 7d e7 4c 3e e3 e5 88 be cf 9e 8a 3e 00 78 e4 be
       0.20010181 -0.2673789 0.27074286 -0.44622803
000250 a0 1d cd 3d 6f a6 09 3f 78 c2 0d 3f 52 c3 53 3a
       0.10015416 0.5376958 0.5537486 0.0008078116
000260 52 9d 9d 3d 1c 54 e0 3d 47 86 99 3e f4 5a f0 3e
       0.07696022 0.109535426 0.29985258 0.46944392
000270 ac 1d 00 3f 87 26 36 3d de 5f 77 3d 57 e5 89 3e
       0.50045276 0.044470336 0.06039416 0.26932785
000280 2f 9b 64 83 7d a7 65 83 58 c8 d1 82 76 c3 42 83
       -6.718132e-37 -6.748932e-37 -3.0824782e-37 -5.7235854e-37
000290 5d fb 9b 83 70 51 78 83 05 7f 6d 83 54 48 74 83
       -9.167791e-37 -7.2974135e-37 -6.979385e-37 -7.1788184e-37
0002a0 ef af 72 83 33 9e 5c 83 1d ae 5e 83 c8 f4 60 83
       -7.131937e-37 -6.4833793e-37 -6.543981e-37 -6.610868e-37
0002b0 8e f5 44 83 50 18 29 03 47 1c 3c 03 1a e6 30 83
       -5.7881106e-37 4.9692546e-37 5.5280695e-37 -5.1985895e-37
0002c0 84 2e 59 83 b2 37 76 83 aa 76 67 83 8a e7 e6 83
       -6.3823966e-37 -7.2356838e-37 -6.802102e-37 -1.3571344e-36
0002d0 22 88 7a 83 f8 cb 16 82 8c ba 6b 83 c4 63 71 83
       -7.362467e-37 -1.1078796e-37 -6.927444e-37 -7.093806e-37
0002e0 b9 90 6c 83 5e 0b 56 83 f8 44 67 83 e7 e1 5a 83
       -6.95203e-37 -6.2901997e-37 -6.796397e-37 -6.4323765e-37
0002f0 26 9a 28 03 33 ae 6d 83 a3 6b 6e 83 5c 59 39 83
       4.9547716e-37 -6.984801e-37 -7.0065475e-37 -5.4469193e-37
000300 ff 82 33 3d 44 26 18 3e d4 32 00 3e 50 4a c4 3d
       0.0438261 0.14858347 0.1251939 0.095844865
000310 9c 36 60 bf 94 27 a5 3e 29 3a 54 3e 39 50 99 3f
       -0.8758333 0.32256758 0.20725311 1.1977607
000320 d6 01 ea 3e 88 c2 07 bf 3e e0 a0 3e 25 b8 a8 3e
       0.45704526 -0.53031206 0.31421083 0.3295299
000330 af 66 c7 bd 78 dd 86 bf b9 4f d8 3d 17 a6 c9 be
       -0.09736382 -1.0536337 0.10562081 -0.3938453
000340 46 34 ca 3e 3c b4 a9 3d bf ad 21 3d 7d 12 93 be
       0.39493006 0.0828633 0.039472338 -0.28725043
000350 a5 e1 20 bf 51 89 d0 bd fa db 86 3e 6c 7e 91 be
       -0.62844306 -0.10182441 0.26339704 -0.28416765
000360 40 dc d1 3d 81 b3 f6 3e b4 65 98 be ed 8c a6 3e
       0.102470875 0.48183826 -0.29765093 0.32529393
000370 7a 96 c9 3d 85 c3 8d 3e b4 b3 3f 3e 4d bc 25 3e
       0.09843154 0.27688232 0.18720895 0.16185112
000380 8e e0 ab 3e 9c 61 79 be 90 ee 70 3e 75 a6 e3 bd
       0.3356976 -0.24353641 0.23528504 -0.111157335
000390 ac 58 a6 3e 54 e7 a9 bd 20 97 d2 be df 61 a6 bf
       0.32489526 -0.082960755 -0.41130924 -1.2998618
0003a0 7e 7b 78 bb 72 69 6e 3d 68 0a 5f be f0 d2 ac bd
       -0.0037915404 0.05820603 -0.21781313 -0.08438671
0003b0 37 0b 1e 3c 8b 2e b1 3e 21 31 2a 3e 37 3a bb 3e
       0.0096462285 0.34605822 0.16620304 0.36567852
0003c0 f0 97 ba be d3 71 36 be 20 40 95 3e ba fe 87 be
       -0.36444044 -0.17816858 0.29150486 -0.26561528
0003d0 bd b4 33 3f a3 55 ea 3e 84 00 23 3c 36 d7 e1 3e
       0.7019766 0.4576846 0.009948853 0.44109505
0003e0 6c fb 85 3e fc b8 61 be 5c 1c 87 3d ec 1f 90 be
       0.26168382 -0.22043222 0.06597206 -0.28149354
0003f0 51 9b a1 3e 07 4b 07 3d 03 f4 d9 bd 93 15 ad 3e
       0.3156381 0.033030536 -0.10642245 0.33805522

fc1.fc3.bias f4 [32]
000000 34 48 fe 3e 50 0e 6c 3e 84 11 7b 83 0b 71 73 83
       0.49664462 0.23052335 -7.3782377e-37 -7.154105e-37
000010 8a 7a 8b 3e 49 76 65 83 bc 4a f8 3d e6 a1 ce 3e
       0.27241927 -6.7432836e-37 0.121236295 0.40357894
000020 ee 76 6e 83 7b 72 1b 3f 3b 62 bf 3e 0f cf 2e 3e
       -7.007844e-37 0.6072156 0.3737963 0.17071174
000030 26 8b e9 3e 51 8d 77 83 8d 44 21 3f 7c 24 9a 3d
       0.45613974 -7.2749e-37 0.62995225 0.0752649
000040 6d 5f 15 bd ff 76 76 83 89 40 2f 3d dc 26 0e 3e
       -0.03646796 -7.2429503e-37 0.042786155 0.13882011
000050 76 0f 8f 3e e8 45 10 3e f1 ca 0a be 8a d6 9b 3e
       0.27941483 0.14089167 -0.13553979 0.30437118
000060 be 15 02 bd e5 72 95 3e 65 2d 79 be 43 18 84 bf
       -0.031759016 0.2918922 -0.24333723 -1.0319904
000070 40 b2 98 3e 6d c1 41 3e 2f 3b c5 bc 81 13 74 3d
       0.29823494 0.18921442 -0.024076072 0.059588913

fc1.fc5.weight f4 [5, 32]
000000 77 4d 3e 3e 40 2d dc be 1f 3f 75 83 13 4b 77 03
       0.18584238 -0.43003273 -7.207149e-37 7.2672957e-37
000010 8f df d2 be 59 a4 78 83 94 dc 8d be fb d9 5a be
       -0.41186187 -7.306931e-37 -0.2770735 -0.21372215
000020 30 98 7e 03 e4 86 d7 3c 27 b1 1a 3f 7f 35 b5 3e
       7.4818594e-37 0.026309438 0.60426563 0.35392377
000030 61 f1 09 3f 23 e0 7a 83 5a 32 cb 3d eb 21 83 3e
       0.5388394 -7.3725693e-37 0.09921713 0.25611815
000040 47 c1 52 3e 27 77 7a 03 af 5d 27 3c 76 41 c2 be
       0.20581542 7.3605177e-37 0.010215207 -0.37940568
000050 b1 96 16 3f b7 e9 78 be 08 1c 25 3e 3f 92 94 3e
       0.58823687 -0.24307905 0.16123974 0.29017827
000060 64 2d 21 bf 06 b0 b4 be 9e 00 05 3f 8a 9b c4 be
       -0.62959886 -0.35290545 0.51954067 -0.38399917
000070 8c f8 18 3f 19 f4 99 3f 56 4c 03 bf 2e 9b 17 3e
       0.5975425 1.2027618 -0.51288354 0.1480529
000080 ac 76 5d be c6 0c 1d 3e d7 90 62 03 cc 81 71 03
       -0.21627301 0.15336904 6.65817e-37 7.0972534e-37
000090 53 48 c1 3e 31 eb 64 03 93 64 e1 bc fb c2 5e be
       0.37750491 6.7273164e-37 -0.027513778 -0.21754067
0000a0 b5 8b 76 83 0f 9f 61 be 17 21 5c 3e 74 d0 f7 bd
       -7.245328e-37 -0.22033332 0.21496998 -0.12100306
0000b0 a2 06 10 bd 17 f5 81 83 3b 58 73 be eb 97 87 bf
       -0.035162576 -7.638208e-37 -0.23764126 -1.0593237
0000c0 94 50 16 bf 10 0c 71 83 cd 36 20 bf 54 a3 00 3d
       -0.587167 -7.083738e-37 -0.6258362 0.03140576
0000d0 63 31 c3 3e f0 90 6b 3e bc c1 93 be eb 80 a6 3d
       0.38123617 0.23004508 -0.28858745 0.08130058
0000e0 e8 48 ac bc 05 2c c4 be c8 1b ef 3e eb d3 14 3e
       -0.021030858 -0.38314834 0.46700883 0.14533965
0000f0 19 91 c4 3e 50 2b 7f be d9 ae 6d 3e 00 aa 68 bf
       0.3839195 -0.24918866 0.2321123 -0.908844
000100 6b 95 1e 3e 54 67 85 3e 28 0e 6f 83 1c c9 6e 03
       0.15486686 0.26055396 -7.025204e-37 7.0172776e-37
000110 94 ee 2f be 60 3f 74 83 0d 7b 3b 3f 07 ec c8 3c
       -0.17180854 -7.1777906e-37 0.73234636 0.02452661
000120 3c 41 72 03 a6 0c a9 3e a2 4b fc 3e 27 ae 9a be
       7.1192294e-37 0.33017462 0.49276453 -0.30210993
000130 c2 b5 e3 bd ee 3f 82 83 6e f0 46 3e e4 42 a3 bf
       -0.11118652 -7.655391e-37 0.19427654 -1.2754788
000140 8a c1 ca be 45 8b 69 83 bc b9 ba be 8c 28 a4 be
       -0.39600784 -6.863242e-37 -0.3646983 -0.32062185
000150 27 07 07 3f b7 ad b2 bd fc 91 f8 be 81 20 0e bf
       0.5274529 -0.0872454 -0.48548877 -0.5551835
000160 6a 9b 14 3e 6f 2f 4c 3e 67 a0 ba bd 2b 72 05 c0
       0.14512411 0.1993997 -0.091126256 -2.0850933
000170 fe c6 0c 3c 82 07 1b bf c0 2d 15 3d f6 5b 10 bf
       0.008592365 -0.6055833 0.036420584 -0.5639032
000180 42 f1 ad be b2 fb e5 3e 13 c6 79 83 3f 94 79 03
       -0.33973128 0.4491859 -7.34019e-37 7.33447e-37
000190 ef 50 d0 3e 54 4e 71 03 ac 78 be 3e 80 85 9d be
       0.40686747 7.091345e-37 0.3720144 -0.30765915
0001a0 25 b1 7f 03 f5 e0 4a be a7 c6 cf be c1 c2 15 bf
       7.5141117e-37 -0.19812377 -0.40581247 -0.58500296
0001b0 ec bd b9 be 86 23 7a 03 c0 84 28 3e d3 6c d0 be
       -0.3627771 7.3509176e-37 0.1645689 -0.40708026
0001c0 ef c0 47 bf ae 4b 46 03 89 7c 56 bf e9 81 26 be
       -0.7802877 5.8273846e-37 -0.83783776 -0.16260494
0001d0 28 b0 da bd b3 f3 95 3e 17 8d 36 bf 84 30 a9 bf
       -0.106781304 0.2928749 -0.71309036 -1.3217931
0001e0 41 70 05 3f 2a 10 2c 3e ab 60 25 bf df 27 3a bd
       0.5212441 0.16803041 -0.6460063 -0.04544818
0001f0 d0 fb 70 be 78 b8 31 bf 1c dd ad 3e 5e 2e e5 3e
       -0.23533559 -0.694221 0.33957756 0.44761938
000200 da f0 23 3e cd 28 05 3e 05 d6 70 03 08 f2 7a 83
       0.16009846 0.13003846 7.0775343e-37 -7.3746235e-37
000210 69 6e 8f 3e c4 e2 68 03 44 1e 02 be d9 44 f2 3e
       0.28013924 6.8438987e-37 -0.12706858 0.47318152
000220 64 d0 6f 83 2a c9 78 3e 9d f3 62 bf cf 5d e1 3d
       -7.047501e-37 0.24295488 -0.88652974 0.11004221
000230 6b 40 4e be f3 78 6e 83 aa d4 55 3e 96 7c b9 3f
       -0.20141761 -7.0080757e-37 0.20881906 1.4491146
000240 a5 5f aa 3e 05 45 6e 83 ba e3 64 3e 90 87 5b be
       0.33276096 -7.0021144e-37 0.22352496 -0.21438432
000250 1c 2e cf bf 18 54 3a 3d bd 54 c2 3e 96 42 f7 3e
       -1.6185946 0.045490354 0.37955275 0.4829299
000260 63 cf 61 3e 5c 5d db 3e 32 f8 50 bf 8a f2 84 3f
       0.22051768 0.42844665 -0.81628716 1.0386517
000270 ac e5 c6 be 1d 70 89 bd e6 d2 e0 bb e7 e5 de 3e
       -0.388471 -0.06710837 -0.0068610786 0.43534777

fc1.fc5.bias f4 [5]
000000 e1 97 c0 3e c0 28 d9 be 4c 7f 02 3f 89 23 75 be
       0.37615874 -0.42413902 0.5097549 -0.23939337
000010 a1 b1 99 3e
       0.30018333

fc2.fc1.weight f4 [32, 18]
000000 9f 23 23 bf 85 2c db 3c dc a1 9d bd 39 92 91 3d
       -0.6372623 0.026754627 -0.07696888 0.07107968
000010 29 3e c8 3e d7 43 17 3e 1a f7 19 bd 33 dd 83 3e
       0.39109924 0.14771973 -0.03758917 0.257547
000020 e4 6a 9e 3a 6c 47 4d 3f ae ec fd 3d ef d8 64 be
       0.0012086299 0.80187106 0.12398659 -0.22348379
000030 0e 7f 99 3e 6b ca 61 3e f7 3b 45 be 7b 87 3f 3e
       0.29979748 0.22049873 -0.19261156 0.18704025
000040 a9 b2 fb 3d a6 af ff 3d c2 0f d9 3d a4 3a 4d 3f
       0.12289936 0.12484674 0.10598709 0.80167603
000050 6b 42 91 3e fd e0 6b bf 61 fb 7b bd 5e 92 20 bc
       0.28370985 -0.9214018 -0.06151903 -0.009800522
000060 5e 3f bb 3e f2 34 f2 bd 2b af 6a be 0f cd 27 3f
       0.36571783 -0.11826505 -0.22918384 0.6554727
000070 bb 67 d2 bd 71 8b 64 be d7 07 0a 3f 50 3c 06 be
       -0.10273691 -0.22318818 0.5391821 -0.13108945
000080 ec 75 d1 3e 69 e2 d9 be da 25 68 3e 3d 69 5c bd
       0.4091028 -0.4255555 0.22670689 -0.0538113
000090 74 ab 8c 3e 87 35 b0 be c1 c8 23 bf 1a d0 4b 3e
       0.27474558 -0.34415838 -0.639782 0.19903603
0000a0 bb 27 1d bc da a8 96 3e d6 4c 6f be 50 53 b3 bd
       -0.009591992 0.294257 -0.23369154 -0.08756125
0000b0 fa 16 88 be e9 24 8a be ae 78 09 3d 44 e4 de bc
       -0.2658003 -0.26981285 0.033562355 -0.027208455
0000c0 cf fa 77 be 5f f3 29 3f 62 94 d7 bc 82 04 36 3f
       -0.2421677 0.6638698 -0.026315872 0.7110063
0000d0 25 bc 84 3e 3e 5a 5b be b5 e7 ac be a8 97 67 3d
       0.25924793 -0.21421143 -0.33770528 0.056541115
0000e0 08 73 f1 3d a2 3a 8c bd 17 3c c3 be 54 40 f6 3e
       0.117895186 -0.06847121 -0.38131782 0.48095953
0000f0 4c e8 d4 bc 93 18 04 bd 6f 84 ff 3d 12 ac 26 3e
       -0.025989674 -0.03225 0.124764316 0.16276577
000100 fa bb 1c 3d 41 dc b1 3b 09 c1 7a be 47 5d 38 3e
       0.038265206 0.0054278676 -0.244877 0.18004332
000110 ce 44 24 3d e8 b9 20 bd 15 00 63 be d1 96 a4 3e
       0.04010468 -0.039239794 -0.22168 0.32146314
000120 56 9d a7 3e 86 bc 1c 3f e4 2c 88 be db 61 d4 3d
       0.32737225 0.61225164 -0.2659675 0.10370227
000130 b8 1c 9f be e8 fb aa bd ca fd b1 be 06 03 4c bf
       -0.31076598 -0.083488286 -0.34763938 -0.79692113
000140 af 0f 33 3e 0d 3a 9c bd d4 b1 0f bf 6f a8 6c 3e
       0.17486452 -0.0762826 -0.5613072 0.23111127
000150 c6 34 29 3d cc 37 8f bd de 61 f0 be 59 a0 96 bc
       0.041310094 -0.06993064 -0.46949667 -0.018387007
000160 1a b3 a7 3d 44 a8 64 bd d7 3b 57 be 45 3d 80 bd
       0.08188458 -0.055824533 -0.21018921 -0.06261686
000170 f5 9d 48 be b4 39 1d 3d ab 91 8c bd e3 03 da 3d
       -0.19591506 0.038385108 -0.068637215 0.106452726
000180 ea 7d 09 be 4e 2a c1 3c be ed ad 3d 29 24 c0 be
       -0.13426939 0.023579743 0.08492611 -0.37527588
000190 e2 7d be 3c 56 12 8c be ca dc f4 bd 5f b2 a2 be
       0.023253385 -0.2735774 -0.11956175 -0.3177671
0001a0 23 ab 70 be 0b f7 ed 3e 54 ec 09 3e a0 60 8d 3e
       -0.23502783 0.4647754 0.13469058 0.27612782
0001b0 d3 ed a9 be 9a 03 fa be cd c1 ff bd d4 7d 7b be
       -0.33189258 -0.48830873 -0.124881364 -0.24559718
0001c0 52 3e 24 3d 13 9e ed bd 81 2a 24 3e a8 68 f2 3d
       0.040098496 -0.11602416 0.16031839 0.11836368
0001d0 81 76 18 3d 60 c3 a2 be c7 8f 4a be 95 ca 83 be
       0.03722239 -0.31789684 -0.19781409 -0.25740495
0001e0 68 6a 41 3d 4e 88 e3 be 64 12 ff be 04 ce 03 bf
       0.047220618 -0.4443993 -0.49818718 -0.5148623
0001f0 c3 5f 18 3d 5f fa 02 3f 7b 76 9b 3d 3a cf 06 bf
       0.0372007 0.51163286 0.07590958 -0.5265995
000200 8d 8b 8c bd e6 bb 99 3d ca bb 21 be 27 7f b2 3e
       -0.06862555 0.07506542 -0.15794292 0.34862635
000210 ea 30 76 3d 16 bc a6 bd 6d e3 c2 3d cf b4 21 bf
       0.06010524 -0.08141343 0.09516034 -0.63166517
000220 79 26 d8 3c d9 b0 09 3e 51 09 64 bf bf c4 3e be
       0.026385533 0.13446368 -0.89076716 -0.1862974
000230 39 54 0b 3e fa 85 c6 be 68 7e 5c be b8 b1 a9 bd
       0.13606347 -0.3877409 -0.21532595 -0.0828585
000240 6a de a4 bc 57 dc 1e 3e 17 10 80 3c fc e7 34 3e
       -0.020125587 0.1551374 0.015632672 0.1766662
000250 b9 04 d0 3d f1 06 48 bc 4f 6a 0c 3e 31 0d 8d bd
       0.10157151 -0.012208686 0.13712429 -0.06887282
000260 f6 3f c0 bd 92 be 82 3f 23 92 8a 3e 5a 55 03 be
       -0.093871996 1.0214407 0.27064618 -0.12825528
000270 10 3a ba bd 27 b7 4e 3e db f0 5b be b7 74 3f 3e
       -0.09093106 0.20187055 -0.21478598 0.18696867
000280 2b 8c 25 3d a9 f0 35 3e 99 0d 07 3e a9 37 90 3e
       0.040416878 0.17767586 0.13188781 0.28167465
000290 19 61 24 3e 25 9f a5 3e 2e 5b 8e bc ff b1 42 3e
       0.16052665 0.3234798 -0.017377462 0.19013213
0002a0 35 4f 88 bd d8 38 74 3e dd ee c6 be 98 cc 0a bf
       -0.066557325 0.23849809 -0.38854113 -0.54218435
0002b0 a4 dd 01 3f 54 72 8d be b6 dc d2 be 09 ed de 3d
       0.5072882 -0.27626288 -0.41184014 0.108850546
0002c0 ec 68 97 be 35 fe b8 3d 09 ad 97 3e 3c 0b 02 be
       -0.29572237 0.09032861 0.29624203 -0.12699598
0002d0 9e 04 bb be 26 bb 17 3f ba 01 c9 3b 3f 6b 40 be
       -0.3652696 0.5926994 0.006134239 -0.18790911
0002e0 95 d6 94 3c 71 f8 29 3e c6 a8 13 be cc 59 fd be
       0.018168727 0.16598679 -0.1441985 -0.49482572
0002f0 3e b6 41 3e 67 53 5d 3d dd b4 cb be 9f 48 0a be
       0.18917176 0.054034617 -0.39786425 -0.13504265
000300 16 e8 c5 3d f5 7a 16 3f 44 63 24 3e 46 72 1a 3f
       0.096634075 0.5878137 0.16053492 0.6033062
000310 07 38 a3 3d 2c dc 5d be ed 06 8c be a5 ba 9d 3d
       0.07969671 -0.2166602 -0.27349034 0.07701615
000320 b8 3a 1a be 4b c8 9d 3d 9c 5a 08 3c 31 bf 5b bc
       -0.15061462 0.077042185 0.008322384 -0.013412283
000330 e8 f1 6f 3d ed 29 c5 3d ec 52 53 be 6c 96 c2 be
       0.05858031 0.09627137 -0.20637101 -0.38005388
000340 71 3e dc bd 7c ad 2f bd 78 24 cd be 96 7f e1 3e
       -0.10754097 -0.042890057 -0.40066886 0.44042653
000350 58 13 cb be 00 4e 90 3e 37 00 2d be c3 1b c4 3e
       -0.39663196 0.2818451 -0.16894613 0.3830243
000360 e0 86 dc bb 2b 12 50 3c db c9 4c be 50 8f 49 bd
       -0.0067299455 0.012699644 -0.19998877 -0.04920894
000370 2c 7b db 3d 2d 05 4e 3d 07 99 ee bd 35 90 97 3e
       0.107168525 0.050297905 -0.116502814 0.2960221
000380 16 8b 17 3e be 3b e7 3e f4 e0 b4 3e 93 a1 dd bd
       0.14799151 0.45162767 0.35327876 -0.108218335
000390 bd 7d 86 be 20 80 54 3f 0c f9 f6 3e 53 6b 80 be
       -0.26267806 0.83008003 0.48236883 -0.25081882
0003a0 35 a7 6d be 50 51 be bd d9 b3 98 bd 7b 2e 8b be
       -0.23208316 -0.09292853 -0.07456178 -0.271839
0003b0 e0 8d 44 3e 13 ce 82 3c ec e2 2b 3e 45 4b e7 3d
       0.19194746 0.015967404 0.16785783 0.112936534
0003c0 86 dd 7d 3e 83 2d 82 3e da 25 8c be 89 a1 cf 3e
       0.24791536 0.25425348 -0.27372628 0.4055293
0003d0 6d c9 10 bd d9 95 62 3d 3d 20 39 be 76 13 4d 3e
       -0.035348345 0.055318687 -0.18078704 0.20026955
0003e0 8d 2c 26 be db c9 7f 3d 76 82 31 be 68 63 bc 3e
       -0.16227932 0.062448364 -0.17334923 0.3679459
0003f0 82 f0 14 be 9c 05 97 3e fe 6a d8 3d 56 b7 25 be
       -0.14544871 0.29496467 0.10567282 -0.16183218

fc2.fc1.bias f4 [32]
000000 8e 6b 69 3f 7f 6d 78 bf dd b6 f4 3e b4 3d c0 3c
       0.9117974 -0.9704208 0.47795764 0.023466922
000010 76 b4 87 3d be 12 03 3f ca 4c 92 bd 00 b7 23 bf
       0.06626217 0.51200473 -0.071435526 -0.6395111
000020 6d bd ab 3f fb a6 55 3f ce f3 7f 3e 9b 9c 90 3e
       1.3417183 0.83457917 0.24995348 0.2824448
000030 25 de ea 3d 86 31 54 3f 13 27 c5 3e 01 dd 1b be
       0.11468152 0.82888067 0.38506374 -0.15221025
000040 7b ce 69 3f 6c 6a 05 3e 39 94 92 3e 78 80 f0 3e
       0.9133069 0.13028878 0.2862871 0.46973014
000050 76 f0 ba 3f 02 d0 f0 bc 09 ce ee 3d aa 3f 40 3f
       1.4604633 -0.02939606 0.11660392 0.75097144
000060 4d 4b 1e 3f 71 be f1 3e a3 2d 32 3f ac 1e 41 3f
       0.6183365 0.47215608 0.69600886 0.75437427
000070 62 1d d8 3f 88 9b 43 3f 2a 45 4b 3f 3d 8c 4d 3f
       1.6883967 0.76409197 0.7940241 0.8029211

fc2.fc2.weight f4 [32, 32]
000000 54 46 99 be cc a7 76 3f be a2 2d bd 46 d7 81 bd
       -0.2993647 0.9634979 -0.04239153 -0.06339888
000010 14 59 13 bf f6 c2 09 3f f1 bb 0b 3e 22 f8 f7 bd
       -0.575578 0.5381311 0.13645913 -0.121078745
000020 78 e9 36 bd 0a 3a 98 bf 92 fc 59 be b7 57 e5 3d
       -0.044656247 -1.1892712 -0.21287754 0.11198371
000030 80 7e 50 3e 78 0a 14 3d 22 b5 23 be d8 ac 3b bd
       0.20360756 0.036142796 -0.15987065 -0.045819134
000040 e7 08 c1 3e 65 b2 0a 3f e5 ac 7f 3e cb 9c 06 bf
       0.37702104 0.5417846 0.24968298 -0.52583
000050 0b 59 97 3e d6 02 31 3f b3 5a 72 bf e2 0f cd 3c
       0.29560122 0.6914495 -0.94669646 0.025031988
000060 d1 65 ff bd 9f 6e 49 be ee 35 f0 3d 86 7f 21 be
       -0.12470592 -0.19671105 0.11729036 -0.15771303
000070 39 4d 85 bc d6 a4 26 3e 71 d3 16 3d 7d ec ff 3c
       -0.016272174 0.16273817 0.03682274 0.031240696
000080 d8 4d b5 3e 66 8c 89 3e 6e 9f d0 3e fc d7 91 3e
       0.35410953 0.26864928 0.40746635 0.28485096
000090 00 ba 10 3f 9e 94 f3 3d 00 74 00 bf 84 85 71 be
       0.56533813 0.11893581 -0.50177 -0.23586088
0000a0 81 f1 f4 3e 5a 64 24 3e 47 9c 3b 3e 7e 49 93 3e
       0.47840503 0.16053906 0.18321334 0.28767008
0000b0 ad 7c 63 3e b3 d7 8c 3e 92 2f e1 3e cc 51 1d bd
       0.22215529 0.27508315 0.43981606 -0.038408086
0000c0 29 b7 fc 3e 45 dc 80 3e 05 c2 32 3e 99 5c 16 3f
       0.4935849 0.25168052 0.17456825 0.5873504
0000d0 77 40 c2 3e 6c 86 41 3e 86 69 1b bf c7 1d 92 3e
       0.37939808 0.18898934 -0.6070789 0.28538343
0000e0 ba a0 3a 3e 30 bb e6 3e 30 e9 b6 3e a3 80 2c 3f
       0.18225375 0.45064688 0.35724783 0.67383784
0000f0 a4 36 ef 3e 61 d6 9d 3e bf 4f 28 3e 57 59 47 3e
       0.46721375 0.3082762 0.1643667 0.19467674
000100 6d 65 9d 3e b5 86 8d bf fc 18 0f bf ec d3 6c 3e
       0.30741444 -1.1056734 -0.558975 0.23127717
000110 60 19 da 3d 25 5a 9a bd be 37 7a 3e 0b 22 37 3e
       0.10649371 -0.07536725 0.24435326 0.1788408
000120 cc 3e ae 3d 18 04 9d 3e 1c 77 e0 be c4 c7 75 3e
       0.08508071 0.30667186 -0.43840873 0.24001986
000130 5e eb a8 be 5a ed 9b 3d a9 60 ba be 08 45 ce 3c
       -0.3299207 0.076136306 -0.3640187 0.025179401
000140 2a c6 df bd b2 6e 8b be b5 1a 26 bd e7 56 47 3e
       -0.10926469 -0.2723289 -0.040552814 0.19466744
000150 45 fc 0e 3e a7 b9 6d bf 01 2b a7 be e9 50 76 bd
       0.1396342 -0.9286141 -0.32649997 -0.060135756
000160 b4 17 fe 3e a1 a8 fa be c2 91 29 3e 8e 19 18 bf
       0.4962746 -0.4895678 0.16559508 -0.59413993
000170 cb c7 dc 3d c7 17 8e bd 31 e6 8f 3e 66 17 80 3c
       0.10780295 -0.06938129 0.2810531 0.015636157
000180 cc d8 87 3e 0a 4d 97 bf d8 57 0b bf 0d aa b4 3d
       0.2653259 -1.1820385 -0.54430914 0.08821497
000190 68 19 23 be 2b 80 60 be 94 84 2a 3e 34 66 9b bd
       -0.1592766 -0.21923892 0.16652137 -0.07587853
0001a0 c9 4c a3 3e 49 0c 7a 3e bd ff 04 bf 8c 61 72 3e
       0.3189452 0.24418749 -0.51952726 0.23670024
0001b0 17 0e ce be fa 5d 44 3e de d2 1f be 76 49 34 3e
       -0.40245125 0.19176474 -0.15607783 0.17606148
0001c0 e5 e8 77 be 67 78 05 be bf 45 bc bc c0 6b 80 bd
       -0.24209936 -0.13034211 -0.022982476 -0.06270552
0001d0 56 ba 1c 3e 9c 08 74 bf 76 75 8a bd 23 5e 2c 3d
       0.15305457 -0.95325637 -0.06760685 0.042081963
0001e0 93 5b aa 3e 76 21 cd be 0a 8d 88 3d c8 95 19 bf
       0.3327299 -0.4006459 0.06667526 -0.59994173
0001f0 47 37 37 3e 3e ca 7a 3d 70 56 cd 3e 89 e5 ba bd
       0.1789218 0.06122803 0.4010501 -0.091258116
000200 92 6d a4 3e 1e 9b 38 bf 45 89 0c bf 09 04 92 3e
       0.32114846 -0.7211169 -0.54896957 0.28518704
000210 ee ec 1f 3c ee f0 d3 3c 92 3c 12 3e 83 ef 4e 3d
       0.009761078 0.02587172 0.14280918 0.050521385
000220 3d 17 a7 3d 3c ef 92 3e fd c3 ff be 3a 52 70 3e
       0.08158729 0.28698146 -0.49954215 0.23468867
000230 c7 be cf be 1b 43 bd 3e 13 09 5b be f8 b4 82 bd
       -0.4057524 0.3696526 -0.2139018 -0.06382173
000240 a0 5c 87 3e b0 eb f6 bd 9c 3c a8 be 21 57 36 3e
       0.26437855 -0.120566726 -0.3285874 0.17806675
000250 be 03 42 3d 09 17 77 bf 79 08 f6 be b2 4b 43 3e
       0.04736685 -0.96519524 -0.4805334 0.19071844
000260 6c 03 c6 3e 37 29 27 bf 67 04 ff 3b ca be 1e bf
       0.38674486 -0.65297264 0.007782507 -0.6200987
000270 c0 32 88 3e 63 12 9b 3e 09 2c ff 3d 1b e5 3f bd
       0.2660122 0.30287465 0.12459571 -0.04684935
000280 f7 6c ee 3e fc f1 61 3d c1 0c ff bc 83 f5 af 3e
       0.4656751 0.055162415 -0.031134011 0.34366998
000290 31 8e 79 3e 6f 7a e2 bb 1b 60 dc be 56 1c 2a be
       0.24370648 -0.006911568 -0.43042073 -0.16612372
0002a0 56 47 29 3f e8 70 21 3e 48 ac 60 3c 5d 76 8d 3e
       0.66124475 0.15765727 0.01371295 0.27629367
0002b0 fd 25 37 3d ff 7d 4e 3e 82 c2 f7 bd e6 35 10 3e
       0.044713963 0.20165251 -0.12097646 0.1408306
0002c0 b1 0f ae 3e 3f 1c 05 bd 91 b2 87 bd 40 94 89 3e
       0.33996347 -0.03249764 -0.06625856 0.26870918
0002d0 f7 fa c2 3e 57 ce bd 3d af 4d 28 bf b1 73 91 3e
       0.38082096 0.09267872 -0.65743536 0.28408578
0002e0 3c 92 f3 bd ab 54 a5 bd 99 a5 1d 3e 56 c8 95 3b
       -0.11893126 -0.0807279 0.15395202 0.004571001
0002f0 39 27 11 3f 02 c2 a0 3e 39 cd 03 3f db 5d dd 3d
       0.56700474 0.31398016 0.5148502 0.10808917
000300 f4 73 8f 83 60 78 71 83 cf 9d 5c 83 b8 13 17 83
       -8.431406e-37 -7.096172e-37 -6.4833345e-37 -4.439755e-37
000310 84 23 45 83 20 a1 52 82 00 14 ae 00 80 a5 ca 82
       -5.7933867e-37 -1.5474604e-37 1.5986551e-38 -2.9776225e-37
000320 ac f8 b6 83 84 ca 5f 83 0b db 63 83 c7 69 65 83
       -1.0754091e-36 -6.5766287e-37 -6.6960753e-37 -6.741848e-37
000330 33 8b 68 83 a0 cb 3f 83 62 02 6d 83 60 a3 70 83
       -6.8338465e-37 -5.6363605e-37 -6.9650776e-37 -7.0717206e-37
000340 c0 f7 5b 82 b9 15 76 83 12 e9 6c 83 90 67 cf 82
       -1.616068e-37 -7.231784e-37 -6.962172e-37 -3.0475358e-37
000350 19 0c 63 83 3f 45 69 83 8a cf 5b 03 7a d8 6f 83
       -6.672319e-37 -6.8552037e-37 6.459656e-37 -7.048429e-37
000360 a8 bd 51 83 ec 2a 61 83 75 fd 68 83 b4 20 70 83
       -6.1637295e-37 -6.617083e-37 -6.8469627e-37 -7.0567202e-37
000370 40 b3 88 83 bc 9c 73 83 b0 87 bf 83 48 34 60 83
       -8.034515e-37 -7.1591204e-37 -1.1257123e-36 -6.58877e-37
000380 4b 46 a5 3d e9 1e f9 3e f9 4e e6 3e 0a fa 91 3d
       0.08070048 0.48656395 0.44982126 0.07127769
000390 27 d9 01 3f 10 b9 a5 3e 1f bf f7 be 98 eb d4 be
       0.50721973 0.32367754 -0.48388 -0.41585994
0003a0 f9 b3 bf 3e bf e6 f3 3d 97 f0 0f 3f b0 c4 9e 3e
       0.37441996 0.11909246 0.56226486 0.31009436
0003b0 0b e6 92 3e 08 56 39 3e ef 35 d2 3e 9f 4c 4c be
       0.28691134 0.18099225 0.41056773 -0.19951104
0003c0 65 1e dd 3e 9e fe e0 3e 23 ff b3 3e 5f e2 33 3f
       0.43187252 0.43944257 0.3515559 0.7026729
0003d0 06 7c 00 3f 68 aa 04 3e ca 3e 11 bf 7e 37 01 3f
       0.50189245 0.1295563 -0.56736434 0.504753
0003e0 18 77 90 3d e0 c0 ff 3e bc 03 c0 3e 8d 69 54 3f
       0.07053965 0.4995184 0.3750285 0.8297356
0003f0 a1 49 8d 3e ef 0b 21 3e 2e 74 b1 3d aa d3 a1 3e
       0.27595237 0.15727209 0.08664738 0.316068

fc2.fc2.bias f4 [32]
000000 1e 0a 04 bf a9 6a 8a 3f 19 c2 37 3e 8e 0a c6 3e
       -0.5157794 1.08138 0.17945136 0.38679928
000010 5b 0d 31 3e 63 3e a7 3f 3c cd d8 83 89 27 c6 3e
       0.17290251 1.3065914 -1.27424585e-36 0.38702038
000020 d7 10 76 83 78 c2 89 be 5d f2 9b 3f 7c ae c2 3e
       -7.2312234e-37 -0.2690618 1.2183338 0.38023746
000030 5c b0 b8 3d b6 2e d6 3e 8d fb 86 3f 2c 81 67 3e
       0.09018013 0.41832513 1.0545517 0.22607869
000040 2f 79 7b 3f fb a2 59 be c1 e7 9e 3f 0e 7d 7d 83
       0.98231786 -0.21253578 1.2414476 -7.4493573e-37
000050 1a de 83 3e a5 d0 91 3e 60 b7 0a 3e c2 1d c5 3e
       0.25755388 0.28479496 0.13546515 0.38499266
000060 ec ce d5 3e 8a cb 38 3f 5b 34 7e bc 05 27 01 40
       0.4175943 0.72185576 -0.015515412 2.0180066
000070 de 7f 3f bc 01 1c 9e bc f8 59 7a bf b9 ae a3 3f
       -0.011688201 -0.019300463 -0.9779353 1.2787696
