net.pt (torch, 33647 bytes, 18 tensors)

weight f4 [32, 13]
000000 94 31 84 3f 76 bc c7 bd 00 4c e0 3d a6 6e 8e be
       1.032763 -0.09752743 0.10951996 -0.27818793
000010 2b 13 63 be 11 69 17 3e 0b 94 93 3d 02 36 d0 be
       -0.22175281 0.14786173 0.07205971 -0.40666205
000020 0b 28 a8 bd c2 d6 af be b7 30 d6 3d 34 6b 71 be
       -0.082107626 -0.34343535 0.1045851 -0.23576051
000030 1d 75 6e 3d 27 88 8b bf ca 01 59 be 38 0d 91 3e
       0.058217157 -1.0900925 -0.21192089 0.28330398
000040 e1 48 9e be 78 87 e2 3c 94 4d fd be d9 55 76 3a
       -0.30914977 0.027652487 -0.4947325 0.00093969476
000050 90 c1 cf 3e 52 e5 2c be 17 5e 7e be 07 f8 22 3d
       0.40577364 -0.16884354 -0.2484058 0.03978732
000060 ec 8e e5 bd a4 3c 5b 3e 99 94 ef bc 9e 21 37 be
       -0.11208901 0.21409851 -0.029245662 -0.17883918
000070 bd d1 1a bf 67 56 97 bd 7c a6 31 3e 2e 92 da 3d
       -0.60476285 -0.07389527 0.17348665 0.10672413
000080 bd b1 04 3f 88 57 fc 3d 64 93 80 3e ad cf 8d be
       0.5183371 0.12321383 0.2511245 -0.27697507
000090 99 01 52 be d8 a3 cb 3c 31 31 5d be 99 5b 39 bf
       -0.20508422 0.0248584 -0.21600796 -0.7240539
0000a0 52 c0 84 be 4b a3 97 be f5 19 25 be c5 e4 0e bc
       -0.2592798 -0.2961677 -0.16123183 -0.008721535
0000b0 ac 47 82 3f 44 cc 5e bd b6 f7 65 3e 5e b3 f8 3e
       1.0178123 -0.05439402 0.22457775 0.48574346
0000c0 2b b4 24 3c 0e 9a b2 3c 37 c6 de 3e 45 f0 3c 3e
       0.010052721 0.021801975 0.435106 0.1845103
0000d0 85 7a a9 be ef f2 27 bf f2 87 bc 3d 50 01 17 3e
       -0.33101287 -0.6560506 0.09205617 0.14746594
0000e0 27 5f 99 3d 6b d3 cf 3d 4c 7c d7 bc 74 6b f8 3e
       0.07488852 0.10147747 -0.026304387 0.4851948
0000f0 b9 41 eb be 3e 75 01 3e c5 fa a1 3e 0c 3d 1b be
       -0.4594858 0.1264238 0.31636634 -0.15160006
000100 fd e4 8c bd f6 dd 4f be d9 aa 3c bd 36 15 cb bf
       -0.068796135 -0.20299515 -0.04606137 -1.5865848
000110 cd 0d 47 bd 05 f1 28 be d4 f4 15 3f 74 7b cc bd
       -0.048597146 -0.16498192 0.58576703 -0.09984484
000120 d3 08 9c 3c 41 ec bf 3d 3c 19 a5 3c a6 24 5e 3e
       0.019047176 0.09371234 0.020153634 0.21693668
000130 8b 11 a3 3d 40 bc 97 3d 83 6c 7b 3e a7 85 74 3f
       0.079623304 0.07408953 0.24553113 0.9551644
000140 78 53 bf 3d 4d 72 09 bf f1 64 47 be 4e 6b b6 bd
       0.09342092 -0.53690034 -0.194721 -0.089071855
000150 19 38 aa be a1 98 a3 be 2f e1 69 be 95 7d 8e 3d
       -0.33245924 -0.31952384 -0.22839807 0.069575466
000160 25 41 90 be f3 38 4b 3e 9d 63 52 3d b2 aa 63 3f
       -0.281747 0.19845943 0.05136453 0.88932335
000170 cb 92 fc 3d eb 71 de 3c 25 8b 2a 3f 0e 88 cb 3d
       0.12332686 0.02715393 0.6661857 0.0993806
000180 c7 92 50 be 73 1d 86 3d 8b 2a 13 be 55 34 fe bd
       -0.20368491 0.06548586 -0.14371698 -0.12412325
000190 57 06 9a bd 54 a1 69 be b9 1a 5e bd d7 d2 9b be
       -0.075207405 -0.22815448 -0.054224703 -0.30434296
0001a0 4c 86 13 be 15 74 b4 be 04 0c 8c 3f fa 98 e0 bd
       -0.14406699 -0.35244814 1.0941167 -0.10966678
0001b0 fd 88 5f bb 5c 50 07 3e 80 56 2e bf fa 53 f6 bc
       -0.003410875 0.13214248 -0.6810074 -0.03006934
0001c0 fe 02 bd be 5c 0c e8 3c cc 25 34 3e 50 14 34 be
       -0.36916345 0.028326206 0.17592543 -0.17585874
0001d0 33 e9 31 bd d6 22 a2 3e 23 70 a3 be bb 15 9f 3a
       -0.043435287 0.31667203 -0.3192149 0.0012137213
0001e0 10 50 f9 bd 8c eb ae bd 16 9c a2 3d 30 89 0a 3d
       -0.12173474 -0.08541021 0.07939927 0.03382224
0001f0 1d 95 c0 bd 3d 41 35 be 39 b6 43 bd 4e 51 b8 bd
       -0.09403441 -0.17700668 -0.047781203 -0.08999883
000200 d8 88 e8 3d 3c b5 4b 3e 33 38 b7 be 5e eb 7f bf
       0.11354226 0.19893354 -0.35785064 -0.99968517
000210 0e 55 21 bf d4 65 17 3f 5a 05 ed 3e 30 b7 78 3e
       -0.6302041 0.5913975 0.46293145 0.2428863
000220 ed 52 c9 3c 67 b8 62 3e 60 3e be 3d 80 e9 04 3e
       0.024575675 0.22140656 0.09289241 0.12979698
000230 63 52 17 3e d5 bf 28 3e 8b 8f 34 be 57 61 bb 3e
       0.14777522 0.16479428 -0.17632882 0.36597702
000240 37 95 0d bf 24 90 11 3f 67 df 10 be fe f3 10 be
       -0.5530581 0.56860566 -0.14147721 -0.14155576
000250 61 78 27 bf bc 27 f8 be 6a 2a 2c 3e 18 42 a6 be
       -0.6541806 -0.48467815 0.16813055 -0.324723
000260 2a 95 24 be a5 2d 08 be 80 44 a2 be 3d 6f ae be
       -0.16072527 -0.13298662 -0.31692886 -0.34069243
000270 df 0e 33 3e ae 68 0e 3e 52 63 a8 bd 7f a7 19 3e
       0.17486142 0.1390712 -0.08222069 0.15005301
000280 c8 ed a6 3d b3 17 67 3f ee 0b 25 bd 84 2f 0c be
       0.08150822 0.9027054 -0.04029458 -0.13690001
000290 05 7b a3 3d cf 90 e5 bd 1f 9f 0a 3d 2d 94 da 3e
       0.079824485 -0.11209261 0.033843156 0.42691174
0002a0 ea fb 62 be b1 e5 ca be 8a 28 7b bf b5 75 6a 3f
       -0.2216641 -0.39628366 -0.9810873 0.91585857
0002b0 7a 12 83 3e 3e 7c 0d 3f 2a 27 81 bd b7 23 09 bd
       0.25600034 0.55267704 -0.06306298 -0.033481326
0002c0 df 2a 81 3e 90 39 dc bd 70 e2 6d bd 8c e2 b5 bd
       0.2522802 -0.10753167 -0.058077276 -0.08881101
0002d0 1d e8 5b be b6 f9 42 3d 98 c5 eb be d2 b6 08 3e
       -0.21475263 0.047601424 -0.4604919 0.1335099
0002e0 dc 20 b6 3e 01 c5 11 be dc cc 3c 3e 5c 1b 49 bf
       0.35571945 -0.14235307 0.18437523 -0.7855737
0002f0 40 75 ee be ed a3 4c 3d 13 83 dd bd 72 c0 9f be
       -0.4657383 0.04996102 -0.10816016 -0.31201512
000300 bc 86 94 3d ae cd 92 be e5 27 14 bf 3a cf 80 3e
       0.07252261 -0.28672546 -0.57873374 0.251581
000310 41 fa f4 3d 88 9d d9 bd b0 c6 14 be 30 f7 93 be
       0.11961795 -0.1062575 -0.14528918 -0.28899527
000320 e2 3c a2 bd 11 ef 35 3e eb 07 f1 be c1 21 a8 3e
       -0.07921769 0.17766978 -0.47076353 0.32838252
000330 7f 56 cc 3e 2e e9 ad be b2 8c 14 be 83 1e f8 bd
       0.3990974 -0.33966964 -0.14506796 -0.12115195
000340 d6 fe 4d be ff 02 8a 3e 1b 1a d3 3c b7 d7 bc be
       -0.20116743 0.2695541 0.025769284 -0.36883327
000350 b7 49 87 be 08 a2 e6 3c 26 ae 2b bc 47 b1 12 3f
       -0.26423427 0.028153434 -0.010478532 0.57301754
000360 af b9 e3 3b 43 9f 48 bf 28 d2 cc 3e 4b f8 ea 3d
       0.0069496254 -0.78368014 0.40004086 0.114731394
000370 17 f8 5d bf 71 fe 99 3e 1e b7 bf be b4 85 f9 be
       -0.8670668 0.30076936 -0.37444395 -0.4873482
000380 ab 4c 2a be 7f 51 57 3d c0 95 d4 3e 85 fe 80 3e
       -0.16630809 0.052567955 0.415205 0.25194183
000390 16 c3 88 be 29 93 fa 3e bf f7 5e be 4f 0a 25 3e
       -0.2671134 0.489404 -0.21774195 0.16117214
0003a0 5d 08 24 3f f1 9f 23 be 6c c3 ad 3e 81 eb b3 3e
       0.6407526 -0.15978982 0.33938158 0.35140613
0003b0 47 cf 95 3d bc 68 a2 3e 06 a1 01 3e 8f 79 c0 3d
       0.07314926 0.3172053 0.12659082 0.093981855
0003c0 ab 19 90 3e 66 e4 ef be 93 29 c8 3d cc a8 f0 be
       0.28144583 -0.46853942 0.09773555 -0.47003782
0003d0 4c eb ab be 0a 88 3f 3c ba d9 23 bf 1a 3e 94 3e
       -0.33577955 0.011690149 -0.640041 0.2895363
0003e0 b6 f3 ba be c6 69 92 3e 96 50 9c 3e bf 28 e0 3d
       -0.36514062 0.28596324 0.30530232 0.10945272
0003f0 a3 f2 ba 3e f8 31 2e bf 94 83 53 be 4b 16 9a bd
       0.36513242 -0.68044996 -0.20655662 -0.07523783

bias f4 [32]
000000 68 fd 52 3b e5 74 66 3d 04 7b 0c 3f 05 18 6b 3e
       0.00321945 0.056263823 0.54875207 0.22958381
000010 a7 27 80 be c1 4c 2f be d7 d4 61 3e 3a e4 22 be
       -0.25030252 -0.17119123 0.22053848 -0.15907374
000020 2a b2 6e 3d 5a de 9b 3d a7 45 97 bd c0 c8 56 3d
       0.05827538 0.076107696 -0.07386332 0.052437544
000030 5d 99 f4 be af fe 37 bd dc 08 03 bf 51 30 83 3d
       -0.47773257 -0.04492062 -0.51185393 0.064057
000040 7b 03 00 bf 02 75 0f be 3d d3 fc bd f0 0e 30 be
       -0.5000531 -0.14009479 -0.12344978 -0.17193198
000050 a7 e7 2e 3e 64 65 ae 3d 6d 73 f0 be 88 6f 69 be
       0.17080556 0.085154325 -0.46963063 -0.22796452
000060 e4 ad f1 3d 7c 1e f1 3d 29 ae ba be 03 4a 05 bd
       0.11800745 0.117733926 -0.36461 -0.032541286
000070 72 fa 91 3d e5 15 7f 3e 3f 9f b3 3e d1 29 8c 3e
       0.07127847 0.24910696 0.35082433 0.27375653

weight f4 [32, 32]
000000 06 16 eb 3c b8 aa fe 3e c9 20 9b 3e 63 80 ef 3e
       0.028697025 0.49739623 0.3029845 0.4677764
000010 56 7e 14 3e 1d 3c 0a bf a2 96 07 bf e3 8e 2c 3e
       0.14501318 -0.53997976 -0.5296422 0.16851382
000020 3f 27 5b bf 3d d7 6e be a6 63 d0 bc e1 a9 6d 3d
       -0.8560676 -0.23324294 -0.025438141 0.058023337
000030 33 a4 d5 3e 61 f9 8c bc 68 98 59 3e 7d 30 eb bd
       0.41726837 -0.017208757 0.21249545 -0.11483858
000040 58 f5 fe 3e a7 e2 99 3e db 73 96 bd bc b1 0a be
       0.49796557 0.30055735 -0.073463164 -0.13544363
000050 08 22 b4 be b2 df 29 3e ec 2e e9 3d c3 98 25 be
       -0.35182214 0.16589239 0.11385903 -0.16171555
000060 6d 86 82 3e 5b 8c e9 3e 49 7d e3 3c d5 ff 8c bc
       0.25493184 0.45614895 0.027769702 -0.017211834
000070 fe 0e e5 be 09 c3 70 bd 2a 0e 03 bf f5 9f 4f 3d
       -0.44738 -0.05877975 -0.5119349 0.050689656
000080 b3 db 85 be 2b bb d2 3c de 76 69 3d 21 a0 68 be
       -0.2614418 0.025724014 0.056998126 -0.22717334
000090 c6 42 07 3f 46 94 3d 3e 46 93 04 bf a5 a0 f4 be
       0.52836263 0.18513593 -0.5178722 -0.47778812
0000a0 38 36 83 3d 2f 39 d3 be 23 7e e8 3e 6e c5 57 be
       0.06406826 -0.41254565 0.45408735 -0.21071407
0000b0 5e 3c 63 be ec 32 0a 3f 5e 47 dc 3d 59 48 49 3e
       -0.22190997 0.5398395 0.107558 0.19656505
0000c0 b7 3d d5 3e 27 9e 90 be b1 41 bb be 58 eb 22 bf
       0.41648647 -0.2824566 -0.36573556 -0.63640356
0000d0 cc fa 73 3e 1f c8 53 be 03 8e 4d bf e2 16 31 3f
       0.2382614 -0.20681809 -0.8029482 0.6917554
0000e0 cb 4f 34 bd b9 df 30 3d dc 48 ad be 51 91 b0 3e
       -0.04402141 0.04318211 -0.3384465 0.34485868
0000f0 b7 7f 03 3e ba 7a 03 be 34 ea 33 3e 1d db 21 be
       0.12841688 -0.12839785 0.1756981 -0.15806241
000100 4d b1 19 bf 9f 4c da be 33 fb 33 3d fa 23 47 bb
       -0.60036165 -0.42636582 0.043940734 -0.0030386434
000110 4d 23 0f 3e e1 ac 0c 3e c5 66 47 3e bf 10 03 bf
       0.1397831 0.13737823 0.19472797 -0.5119743
000120 43 56 8b bd 75 dc 74 bc 43 36 a7 3e 71 38 31 be
       -0.068035625 -0.014945139 0.32658586 -0.17306687
000130 70 29 11 3d 8a 25 d2 3e ca 43 c8 3d ea 36 dc 3e
       0.03543991 0.41044265 0.09778555 0.43010646
000140 1b 5b e1 bd b7 d9 13 be b9 44 0e 3e bd 10 70 bd
       -0.11003705 -0.1443852 0.13893403 -0.058609713
000150 bf 1d b6 3e 26 17 13 bc c7 79 52 be db 25 fa 3b
       0.3556957 -0.008977687 -0.20554267 0.0076339073
000160 7c 0e 88 bd e7 98 6b bd d6 cc b0 be f1 6c bb 3d
       -0.06643388 -0.057518866 -0.34531277 0.09151638
000170 a4 b8 57 3e d3 6a d8 bd 31 17 13 be c5 a2 32 3e
       0.21066529 -0.1056725 -0.14364316 0.17444904
000180 4a 5b 29 3f 20 62 92 3e a7 87 c9 3c 34 a2 4b 3e
       0.6615492 0.28590488 0.024600817 0.19886094
000190 78 48 6b be 6e 82 c9 be 9d ac 82 be 23 99 29 3e
       -0.22976863 -0.39357322 -0.25522318 0.16562323
0001a0 22 fc cc 3e 86 f2 36 3e ce 97 61 bf 27 24 59 3e
       0.40036112 0.17865953 -0.8812226 0.21205197
0001b0 ed 6b 5e 3e b2 f7 32 bf 68 b1 59 3f fe 1e 13 be
       0.21720858 -0.69909203 0.85036325 -0.14367291
0001c0 7a 2e fb 3e 63 89 1a 3e 41 57 c3 bc 10 fd c8 3d
       0.49058896 0.15091471 -0.023845317 0.09813893
0001d0 43 17 23 bc b6 f2 2e 3e bb e3 e9 bd 7f 65 55 bd
       -0.0099542765 0.17084774 -0.11420389 -0.052098747
0001e0 ef 47 59 3e 05 2e 6f 3e 64 30 33 3e 80 d9 58 bf
       0.21218847 0.23357399 0.17498928 -0.8470688
0001f0 b1 63 b2 be b9 3e f8 3d 72 8b a5 be a0 da 41 be
       -0.34841684 0.121213384 -0.3233295 -0.18931055
000200 54 6d ff be 91 eb 63 3f f5 6c 25 3e ca c8 4d 3f
       -0.49888098 0.8903132 0.16154845 0.80384505
000210 01 ed 3e 3d 6f df 0a be 89 6c 4c be 25 ba 95 3e
       0.046612743 -0.13561796 -0.19963278 0.2924358
000220 8f 86 35 be 14 4b 64 be 79 c5 d8 be 53 29 d4 3e
       -0.17727111 -0.22294265 -0.4233816 0.41437778
000230 12 27 ff 3c fd 34 8a be d3 0f ef 3d 79 85 0c bf
       0.03114656 -0.26993552 0.1167294 -0.54891163
000240 99 0e 85 3e d7 9e c2 bd 0a 6a 8a 3e 76 fa da 3e
       0.259877 -0.095029525 0.27034026 0.42769212
000250 ac b8 3c be 49 9d 8d bc 4d 3d 23 3e 67 36 7b be
       -0.18429822 -0.017286913 0.15941353 -0.24532472
000260 97 8b 7e be fd 7c ce 3c 42 db 2f 3e 71 c2 a6 be
       -0.24857937 0.025206083 0.17173484 -0.32570222
000270 b1 f2 e8 3d 47 71 83 3d cc 15 02 3f 6f db e4 bd
       0.11374415 0.0641809 0.5081451 -0.11174666
000280 c6 41 89 3e dd 21 4f 3f dc 75 8e 3e 15 ab c9 3e
       0.26807994 0.80911046 0.27824295 0.39388338
000290 dd 74 4e bd d3 83 e9 be df a0 8d be e3 4c 02 3f
       -0.05040442 -0.45608386 -0.27661797 0.5089857
0002a0 bc ae a4 bc 3d 9c 85 3d 5c 3b 1f bf ce e1 fb 3d
       -0.020102851 0.06523941 -0.6219995 0.12298928
0002b0 0f c4 3c bd 1d 7f 24 bf b0 bb 0a 3e 9d 26 83 bd
       -0.046085414 -0.6425646 0.1354816 -0.06403849
0002c0 95 64 c7 be 49 4e 80 3e 06 b7 38 be 39 e1 15 be
       -0.38943925 0.25059727 -0.18038568 -0.14636697
0002d0 d6 32 ab 3c 29 51 98 3e 3e 49 9f 3c b5 3d 60 be
       0.020898264 0.2974942 0.019444104 -0.2189854
0002e0 01 91 11 be 82 c1 15 3e ab c2 38 3e 3c 28 83 bf
       -0.14215471 0.14624599 0.1804301 -1.0246654
0002f0 dc 32 fd 3e b6 2f f7 3d 7c 7b b2 3e f7 c3 bb be
       0.49452865 0.12069647 0.34859836 -0.36672947
000300 79 f4 42 3c 37 ca 11 be ba a6 00 bf d7 06 98 be
       0.011899107 -0.14237295 -0.50254405 -0.29692718
000310 46 4f 65 be 2d eb 7c 3e fd 91 9e bd e1 04 75 3e
       -0.22393522 0.24699087 -0.07742689 0.23927642
000320 39 f6 79 be cb 66 64 3d aa 53 05 3f 7d 20 bb bd
       -0.24410333 0.055762094 0.52080786 -0.09137056
000330 68 66 31 3d 70 b6 b2 3e 96 b9 7e be 09 0e 06 be
       0.043310553 0.34904814 -0.24875483 -0.13091291
000340 bc d5 8d be 91 96 39 3e 9f 24 ca 3e 7a 07 13 3e
       -0.2770213 0.18123843 0.39481065 0.14358321
000350 b3 3a 18 bf 7e c6 ab 3c 53 65 16 3f 0a fb d0 3d
       -0.5946457 0.020968672 0.5874836 0.10204132
000360 35 86 41 3e 32 d8 02 3e 4f 11 ff 3d de 54 94 3e
       0.18898852 0.12777784 0.12454473 0.28971
000370 70 0b 07 be 60 64 a8 3c 57 16 c6 bd ea b0 35 3d
       -0.13187957 0.020555675 -0.0967223 0.04435817
000380 39 aa fd be 5f b9 7b bf d3 bb a4 3e 43 08 d0 bd
       -0.49543932 -0.9832973 0.32174549 -0.10157826
000390 ab df f8 be 65 41 0c bd 3c 82 97 3e 58 07 85 bf
       -0.48608145 -0.034242053 0.29591548 -1.0392866
0003a0 1f d2 b3 3e 37 b3 25 3e da 76 64 3f 73 13 26 bd
       0.35121247 0.16181646 0.89243853 -0.040545892
0003b0 4f 36 52 be 20 37 4f be 44 fb a8 be dc 96 f5 3e
       -0.2052853 -0.20235872 -0.330042 0.4796666
0003c0 80 3a ee be 75 c3 e2 be 59 5f c0 3e 90 f9 6f 3e
       -0.46529007 -0.44289747 0.37572744 0.23435044
0003d0 a4 02 99 3e cd 68 ac bd 65 ca b5 3e e0 eb eb 3d
       0.29884827 -0.08418427 0.35505977 0.11519599
0003e0 f0 04 c3 3c 8f 06 25 3e 42 84 c4 be 2d 53 e9 3b
       0.023806065 0.16115783 -0.38382155 0.007120511
0003f0 7b e1 e3 be ee 69 cd be 08 c1 2b 3e 2e 5d 25 3e
       -0.44507965 -0.4011988 0.16772854 0.16148826

bias f4 [32]
000000 1a 62 a7 3d 4c c2 29 3d 13 5e 5c bd fb 68 a1 3e
       0.08173008 0.04144506 -0.053800654 0.31525406
000010 03 42 9d bd e1 ee cc 3e 82 12 22 bf 7f 2f ad 3d
       -0.07678606 0.40026 -0.6330949 0.08456325
000020 e2 01 56 bc 79 7e 0b 3f 69 d0 40 bd 13 55 97 3e
       -0.013061972 0.54489857 -0.047073755 0.29557094
000030 2c 3e 1b 3d aa 94 d6 3d da 11 39 3e db 12 29 3f
       0.03790109 0.10477574 0.18073216 0.66044396
000040 06 cf 1b 3c a0 7e 37 3e d6 30 62 3f b7 ae 0b 3f
       0.009509807 0.17919397 0.8835577 0.5456347
000050 6e 6f 96 3e d3 b6 91 3e b4 bb e8 3e bb b1 3e 3e
       0.2938189 0.28459796 0.45455706 0.18622486
000060 50 03 5d 3d 8a 6a 05 3e 36 6a c7 bc dc ff 1b 3e
       0.053958237 0.13028923 -0.024342638 0.15234321
000070 b1 8e 99 3e 12 b8 20 3d 24 13 a2 bd 4f 96 17 be
       0.29991677 0.039238043 -0.07913807 -0.14803432

weight f4 [32, 32]
000000 8c dd 9b be 3d b7 17 3e a2 6e b9 bd a7 cb fd be
       -0.30442464 0.14815994 -0.09054305 -0.49569437
000010 bb 24 b4 bd d6 92 0b 3d d2 81 2f bd 6f e2 b9 3e
       -0.08796068 0.03407558 -0.042848416 0.36305568
000020 ee ee e9 bd ea ff 5d bd 43 82 5a bd e9 9b a5 3d
       -0.11422525 -0.054199137 -0.053346884 0.08086378
000030 df cc 8d 3c b8 5d 88 3d da 21 11 3e be 0f 4e bf
       0.017309604 0.066585004 0.1417307 -0.8049277
000040 62 cf 5c bd b4 fa 9b bd 71 f5 a0 3e cc 43 47 3e
       -0.053908713 -0.07616177 0.31437257 0.19459456
000050 a5 94 1d be 1c 7c 93 3e 45 23 10 3d 79 27 07 3e
       -0.15388735 0.28805625 0.035189886 0.13198651
000060 f7 1a bb be bb a7 be 3e 95 c2 72 be 28 c2 d0 be
       -0.3654401 0.37237343 -0.2370704 -0.4077313
000070 8f a7 68 3e ca 5a 41 be ab 43 2c 3d 41 33 56 bd
       0.22720169 -0.1888229 0.04205672 -0.052294973
000080 91 e5 76 83 d7 db 7f 83 2c eb 70 83 b1 66 7b 83
       -7.255643e-37 -7.519013e-37 -7.0799625e-37 -7.3880154e-37
000090 ec d1 78 83 bc 17 6c 83 b5 bc 6c 83 26 e2 77 83
       -7.312163e-37 -6.9381412e-37 -6.957079e-37 -7.284638e-37
0000a0 9c 34 7c 83 af 0d 6f 83 4e cb 77 83 e1 4a 77 83
       -7.4116537e-37 -7.0251495e-37 -7.282016e-37 -7.2672733e-37
0000b0 ed 73 6b 83 4f 82 7f 83 dc a4 77 83 70 dc 6b 83
       -6.919337e-37 -7.508735e-37 -7.2776025e-37 -6.9313343e-37
0000c0 cb 58 7e 03 04 61 76 83 3c 87 7c 83 d1 33 73 83
       7.474582e-37 -7.240427e-37 -7.4211386e-37 -7.1470764e-37
0000d0 7b 9d 76 83 57 01 7b 83 98 90 6d 83 89 cf 70 83
       -7.247368e-37 -7.376381e-37 -6.9814026e-37 -7.07679e-37
0000e0 f1 d1 6d 83 be 0a 7d 83 be 2e 6d 83 7e e4 77 83
       -6.988904e-37 -7.436235e-37 -6.9701698e-37 -7.2849072e-37
0000f0 86 0e 72 83 08 e3 7b 83 4e b7 69 83 76 31 6c 83
       -7.113408e-37 -7.402289e-37 -6.868297e-37 -6.9410945e-37
000100 7e f2 b1 bd 0f 40 ac 3e a9 23 14 be 76 ed 17 bf
       -0.0868883 0.33642623 -0.14466728 -0.5934671
000110 d9 a0 b6 be d3 0b ae be a4 fe dd be a0 3b b5 3e
       -0.35669592 -0.33993396 -0.43358338 0.35397053
000120 f8 e8 64 bd 6f c1 7d 3d c6 51 74 3e 89 04 e1 bd
       -0.05588624 0.06195205 0.23859319 -0.10987193
000130 4f 2e 5f 3e 53 51 99 3d 37 5f db 3e 5f 71 49 bf
       0.21795009 0.074862145 0.4284608 -0.78688616
000140 f2 7c e9 bd 99 28 08 3e 27 c6 a3 3e 61 10 3c bd
       -0.114007846 0.13296737 0.31987116 -0.045914058
000150 10 8e 3a 3d f6 49 55 3e 45 81 19 3e 11 94 13 3f
       0.045545638 0.20828995 0.14990719 0.57647806
000160 b1 29 9b be d1 67 ff 3d 63 4a 36 be fb 59 0b bf
       -0.30305246 0.12470973 -0.17801814 -0.54434174
000170 d2 48 bf 3e 03 88 13 be fc 05 2f 3c 1d cc 75 be
       0.37360245 -0.14407353 0.010682579 -0.24003644
000180 8c 71 38 3f 23 08 63 be 3a bb 06 bf 17 f0 39 3f
       0.7204826 -0.22171073 -0.52629435 0.72631973
000190 36 18 fd 3e 8f 5b e1 3d 65 92 5d bd 8b 78 cf be
       0.49432534 0.110037915 -0.05409469 -0.40521654
0001a0 f3 f5 0d bf dd 38 fa 3d dd 80 ee be d1 fd 9e 3e
       -0.55453414 0.12217877 -0.4658269 0.31053022
0001b0 6c dc 0d bf 43 a7 14 3e cd 2d 31 be b2 7e 0a 3f
       -0.5541446 0.1451693 -0.17302628 0.5409957
0001c0 d3 04 dc bd 77 4d 82 be e5 41 44 bd 2b bc 2e bc
       -0.10743108 -0.25449726 -0.047914404 -0.01066498
0001d0 3b ca af 3e 84 06 c5 3d ad 2a e3 3e b0 f0 ee 3d
       0.34333977 0.096203834 0.44368497 0.11667001
0001e0 16 19 e9 bc 76 1c d1 3e 0a c2 18 be 2c 24 7f 3e
       -0.028454345 0.40842026 -0.1491777 0.24916142
0001f0 aa 3c eb bd 3a 1e de be fa d2 df 3d 07 e8 db 3e
       -0.1148618 -0.43382436 0.109289125 0.4295046
000200 8d 20 24 3f 8e d7 1f bf ba 3f ae bd 45 37 1e 3f
       0.6411217 -0.62438285 -0.085082486 0.61803085
000210 0a e4 0c 3f a5 80 cd 3e 82 fa 5c bd 5c 4e d3 be
       0.5503546 0.4013721 -0.05394984 -0.4127072
000220 67 f2 9d bd 44 d1 fa 3e d5 1a b4 be 70 bd 37 3e
       -0.0771225 0.48987782 -0.3517672 0.17943358
000230 f4 3b 19 bf 3f 1f c8 3e 1d fe 35 be 74 c1 72 3e
       -0.59857106 0.3908634 -0.17772718 0.23706609
000240 e1 3d 91 bd ca 67 97 be 1e 1e 84 3e 94 57 92 3e
       -0.070918806 -0.29571372 0.25804228 0.28582442
000250 15 47 4e 3e 00 d5 75 bd 52 72 e0 3e 33 e3 00 be
       0.20144303 -0.060017586 0.4383722 -0.1258667
000260 21 ac 86 3d 58 35 84 3e 56 9f 5d 3a 7b 1d 25 3e
       0.065758 0.25821948 0.0008454224 0.16124527
000270 24 a6 c1 be 20 70 ab bc b8 fe 32 3e 72 03 91 3e
       -0.37822068 -0.020927489 0.1747998 0.2832294
000280 61 fd a6 3e 71 b9 13 bf dd 91 82 3e 67 52 47 3e
       0.32615188 -0.57704836 0.2550191 0.19465028
000290 94 25 f5 3e bf df 0f 3f 25 ad d2 3e b4 db 0e be
       0.47880232 0.56200784 0.41147724 -0.13950998
0002a0 81 dd 24 be 8b bd 4c 3e 7b 0c 22 3e 16 dd 53 3e
       -0.16100122 0.1999418 0.15825073 0.20689806
0002b0 3d fc a4 be 9e 81 1c bd 6d 77 40 be fa 2f 60 3d
       -0.32223693 -0.03820955 -0.18795557 0.054733254
0002c0 18 c8 f2 3c 77 63 97 3e 79 32 93 3e f3 3c 53 3d
       0.029636428 0.29568073 0.28749445 0.051571798
0002d0 66 15 9d bd fe dd 4e 3e 3c c5 80 bd 2f 67 08 be
       -0.07670097 0.20201871 -0.062876195 -0.13320611
0002e0 5b 46 b3 3e c1 2e 8a 3e 84 19 53 3e 6c 31 dd 3e
       0.35014614 0.26988795 0.20615202 0.43201768
0002f0 b1 c7 cb bd bb 8d 11 be 9d 16 96 3e 29 90 bc 3e
       -0.099501975 -0.14214222 0.29314128 0.36828735
000300 a7 45 38 3e 5f 8e 5d bf b3 09 90 be 5d 77 34 3f
       0.1799532 -0.86545366 -0.281324 0.70494634
000310 af 33 2c 3f ee 52 a2 3e 7a d1 88 3d bd cf aa be
       0.6726636 0.31703895 0.066805795 -0.33361617
000320 34 7a c1 3e f1 c4 ad 3c b6 22 82 be 60 c7 75 3d
       0.37788546 0.021212073 -0.25417107 0.060004592
000330 82 be ef be 61 0a e5 3e 6c f3 af be 3d d7 11 3e
       -0.46825033 0.4473448 -0.34365404 0.14242263
000340 3f 70 67 bf 79 2f 8a 3e 97 ee 44 3e 06 b1 c2 3d
       -0.9040565 0.26989344 0.1923164 0.09506421
000350 2f d6 d8 3e a3 73 19 3e f3 a8 8b 3e 03 84 53 3e
       0.4235091 0.14985518 0.27277336 0.20655827
000360 ba dc a2 3e 0a 9e ba 3e 5e 9a 01 be 96 2f b9 3d
       0.31809026 0.364487 -0.12656543 0.090422794
000370 64 33 14 bf 37 ef b3 3d a8 13 04 3e c2 9c 9c 3d
       -0.57890916 0.08785861 0.12898123 0.07647087
000380 e5 99 6e 83 f7 09 6e 83 f9 a2 7b 83 87 d5 6d 83
       -7.0118576e-37 -6.9953353e-37 -7.3949354e-37 -6.9893158e-37
000390 5c f2 6c 83 8d bd 72 83 5f 2e 73 83 b6 e5 6d 83
       -6.963238e-37 -7.1335e-37 -7.1464513e-37 -6.9911736e-37
0003a0 13 30 7f 83 96 fa 6f 83 4b e7 69 83 e4 bf 74 83
       -7.499295e-37 -7.0523446e-37 -6.8738057e-37 -7.1925435e-37
0003b0 17 16 78 83 12 b6 6d 83 f9 19 6d 83 39 35 79 83
       -7.2906008e-37 -6.9857047e-37 -6.9677855e-37 -7.323562e-37
0003c0 74 5a 78 83 e8 98 69 83 d1 e3 7f 83 58 1a 70 83
       -7.2984485e-37 -6.8648074e-37 -7.5199285e-37 -7.05599e-37
0003d0 8b ef 74 83 a0 35 70 83 ce ea 6c 83 e4 db 6d 83
       -7.1980137e-37 -7.059122e-37 -6.962371e-37 -6.9900462e-37
0003e0 1f 23 7f 83 5d c2 77 83 94 d6 6b 83 33 0e 7b 83
       -7.497808e-37 -7.2809894e-37 -6.9306617e-37 -7.377857e-37
0003f0 f7 30 77 03 71 15 72 83 cb 59 7c 83 89 b7 75 83
       7.2642985e-37 -7.114202e-37 -7.415922e-37 -7.2209717e-37

bias f4 [32]
000000 3e 98 f3 3e 67 26 74 83 1e 76 d9 3e 93 d2 21 be
       0.4757709 -7.174924e-37 0.4247293 -0.15802984
000010 26 96 a8 3e 4a b1 b6 3e 58 5d 57 3d 76 4f 78 83
       0.32927054 0.35682136 0.052579254 -7.2971866e-37
000020 7f 3c 21 3f 8a 90 09 3e 66 77 7d 83 d3 ae 15 bd
       0.62982935 0.13434044 -7.448708e-37 -0.03654368
000030 78 cf 81 3e 54 31 4f 3e fa c7 da 3d f3 89 02 83
       0.253536 0.20233661 0.10682674 -3.8361924e-37
000040 73 39 b7 3d 2f 36 4a be 5a e3 6d 83 ea 60 84 3e
       0.089465044 -0.19747232 -6.9909027e-37 0.2585519
000050 6f 00 65 3d c1 ba 03 bf 0d b7 35 3e b0 f3 10 83
       0.055908617 -0.5145684 0.1774561 -4.2597536e-37
000060 11 2d 8f bd ac 71 99 3e b9 5c 06 3e 71 71 1c 3e
       -0.069910176 0.29969537 0.13121308 0.1527765
000070 a8 8a d6 3e 66 77 e3 3e 74 50 7f 3e 71 e5 23 3e
       0.4190266 0.4442703 0.24933034 0.16005494

weight f4 [5, 32]
000000 c1 77 62 3e b4 7f 6b 03 43 66 c7 3e 73 32 14 3f
       0.22115995 6.920689e-37 0.38945207 0.5788948
000010 3c 42 a6 be 2d 25 38 be c9 75 b6 be c8 19 79 03
       -0.32472408 -0.17982931 -0.35636738 7.320412e-37
000020 3d 2f e8 3d e0 3c 43 3e 90 e0 7a 83 b9 20 91 be
       0.11337135 0.1906619 -7.372618e-37 -0.28345278
000030 af 3d 04 3f 5c 6b c4 be 7c 7c 13 3f 03 8b 08 82
       0.5165662 -0.3836316 0.57611823 -1.0031596e-37
000040 a2 f4 4a 3f c2 67 ec 3e 00 f1 70 03 df d4 07 3e
       0.7927953 0.4617291 7.0806315e-37 0.13264798
000050 6d 85 9b 3e 50 50 80 3f 12 cc 7d bd 82 12 14 83
       0.30375233 1.002451 -0.061962195 -4.3514537e-37
000060 b2 c2 b9 3e 3d 67 90 be 9e 11 13 3e 72 29 6e be
       0.36281353 -0.28203765 0.14362189 -0.23257998
000070 d1 23 42 be aa 59 07 3f 09 ce 9f 3d a5 a9 4a 3e
       -0.18958975 0.5287119 0.0780297 0.19791277
000080 3a aa 88 be f0 74 7a 03 9a 33 a1 be 53 17 0a bf
       -0.26692373 7.3602635e-37 -0.3148468 -0.5394184
000090 ab 67 17 3e b6 80 4e be fe d6 12 3f 54 2d 7f 03
       0.1478564 -0.20166287 0.573593 7.49898e-37
0000a0 21 d1 06 bf bb 8e b4 bc eb 8b 72 03 36 44 f6 3e
       -0.52662855 -0.022040715 7.1278026e-37 0.48098916
0000b0 cc 4c 85 3e a9 78 ce 3d 8b e5 ee 3e b8 d9 13 83
       0.26035154 0.10081608 0.46659502 -4.3449346e-37
0000c0 10 18 82 3e c9 9a 03 bf 48 bc 6a 03 3e b5 71 3d
       0.25408983 -0.5140806 6.8982556e-37 0.059010737
0000d0 3b 85 0f bf fa d4 e7 be 38 67 bf 3b 8e 58 a6 03
       -0.5606267 -0.45279676 0.005841162 9.776934e-37
0000e0 26 29 0a bf e2 78 34 3e 20 bf f0 be dd 15 3c 3e
       -0.5396904 0.17624238 -0.47020817 0.18367715
0000f0 aa f6 d7 be 19 7c 27 3e 8f 8c 21 bf cb 2d 96 3d
       -0.42180377 0.16355933 -0.631051 0.07332953
000100 e3 7a 16 3a e4 52 7e 03 3e f8 e3 bd cb 0d 81 bf
       0.00057403574 7.4739045e-37 -0.11131333 -1.0082334
000110 d6 fd f5 3e 67 fd ff 3e ba cf fa 3e bd 23 77 83
       0.48045224 0.49998018 0.48986608 -7.26278e-37
000120 0b 5e 9d 3e 0d 33 fa bd bf f9 6a 03 e8 86 64 bf
       0.30735812 -0.122167684 6.9053114e-37 -0.8926835
000130 a0 66 fc 3d fb 2a 8d 3e b4 b6 46 3d 76 55 ba 02
       0.12324262 0.27571854 0.048514083 2.7379296e-37
000140 95 4c c4 3c 95 f3 b1 3c 80 37 7d 03 7c 80 c2 3e
       0.023962298 0.021722594 7.441373e-37 0.3798865
000150 a7 20 84 bf 0d fc e8 bf 9d d0 f5 3d 0e 0c d6 03
       -1.0322465 -1.820192 0.120026805 1.2580557e-36
000160 02 74 28 bf 62 e5 90 3e cf 4a 6a bf 54 ed 6e 3e
       -0.65802014 0.28300005 -0.915204 0.23332721
000170 e6 03 04 3f da 01 08 3d d9 74 1b bf ee 22 48 be
       0.5156845 0.03320489 -0.6072517 -0.19544575
000180 c0 d0 05 be 3b 0c 79 83 51 3f dd bd 99 35 78 be
       -0.13067913 -7.3188563e-37 -0.10803092 -0.24239196
000190 4e 98 d8 3e 86 71 80 be 01 26 48 3f e0 cb 73 03
       0.423037 -0.25086612 0.7818299 7.164532e-37
0001a0 c7 4f 1b bd 3f 09 47 bf c4 b8 70 03 a7 32 1c bf
       -0.03791788 -0.77748483 7.074176e-37 -0.6101479
0001b0 c4 94 72 be 41 6b aa 3e 96 af 45 be 9c ca ca 03
       -0.23689562 0.33284953 -0.19305262 1.191901e-36
0001c0 b7 6f 04 3e 3c d6 28 bf 7e 58 72 83 94 fe 43 3e
       0.12933241 -0.65951896 -7.1218992e-37 0.19140083
0001d0 e2 ed 37 be 24 3d a4 be 34 0c fe 3e 4e ec e8 03
       -0.17961839 -0.32077897 0.49618685 1.3689987e-36
0001e0 18 e1 61 3d 87 9c 9a 3e 95 54 6c bf b9 47 12 3f
       0.055146307 0.30197546 -0.9231656 0.5714069
0001f0 a9 a0 2d be 99 a7 42 bf 76 c3 60 bf 16 9d 00 bf
       -0.16955818 -0.76036984 -0.8779825 -0.50239694
000200 23 b8 84 3d f0 2d 7f 83 07 9a 8f bd 46 04 60 bd
       0.06480434 -7.49905e-37 -0.070118 -0.054691575
000210 76 92 5e 3d a6 6c e9 3d 56 3f 8b 3e e0 ea 7c 83
       0.054338895 0.11397676 0.2719676 -7.4325767e-37
000220 97 a5 4c 3e 5d 26 f4 3d b7 04 7f 03 26 9c bc 3e
       0.19985043 0.1192138 7.4943177e-37 0.36837882
000230 fb f7 26 bf 87 bb 3f 3e 9c 5e 2c bf 49 a1 fc 82
       -0.6522214 0.1872388 -0.6733186 -3.7120645e-37
000240 2e 7c 40 bf f8 79 03 be 13 53 72 83 e5 af bb be
       -0.75189483 -0.12839496 -7.1212773e-37 -0.36657634
000250 13 d0 e3 3e 63 cc 17 3d da 52 6f 3e 5c 73 c3 83
       0.44494686 0.037060153 0.23371449 -1.1487555e-36
000260 a4 4a 72 3e 54 85 be 3d 0a 17 81 3e 08 d9 36 3e
       0.23661286 0.09302774 0.2521289 0.17856228
000270 08 da c9 3d de ff 29 bf d5 d2 1f 3e 31 a5 32 3e
       0.09856039 -0.6640605 0.1560777 0.17445828

bias f4 [5]
000000 b4 21 f4 3d 88 c7 51 bf b3 24 29 3f 61 9f 17 bf
       0.11920491 -0.81945086 0.66071624 -0.5922757
000010 ba 21 9b bd
       -0.07574792

weight f4 [32, 18]
000000 33 d3 43 3e 63 03 fd be 7f bc 7c be 3b 37 09 3f
       0.19123535 -0.49416646 -0.2468128 0.535999
000010 c4 f2 f4 3d d4 1b c2 be 34 23 ff bc a7 a9 b9 3d
       0.11960366 -0.37911856 -0.031144716 0.09065562
000020 9f 95 f5 be c6 25 28 3e 89 fd 07 be 40 4c b6 be
       -0.47965714 0.1642066 -0.1328031 -0.3560505
000030 24 6c a4 3e bf da 05 be a1 47 06 be b6 d2 76 3e
       0.32113755 -0.13071726 -0.13113262 0.24103817
000040 c8 1f 4a bd 0f 0c 8b 3e bc bf 16 bd fc c8 9d be
       -0.049346715 0.27157637 -0.036803946 -0.308174
000050 d9 87 8a 3d 13 1c 88 bd 81 8a a0 3d 74 1c 55 3f
       0.06764192 -0.0664598 0.078389175 0.8324654
000060 60 28 e5 bd 15 68 6e bd 27 22 8e 3f f9 df ed 3e
       -0.111893415 -0.05820473 1.1104172 0.4645994
000070 e0 1a c4 bd 69 7f 5e 3f 87 c4 92 3e f4 93 51 3d
       -0.095754385 0.8691316 0.28665563 0.05116649
000080 cb 5c 0d be 8c 08 44 be 99 99 f4 bc 75 46 25 3e
       -0.13804929 -0.19143885 -0.029858397 0.16140158
000090 c7 1a d3 3d 35 c4 15 3d fa d1 e2 be 03 fb 93 bd
       0.10307842 0.03656407 -0.44300824 -0.07225611
0000a0 0e af d4 3c ec f9 bc 3e bd cc 46 bf 02 d2 1d be
       0.025962379 0.36909425 -0.77656156 -0.15412143
0000b0 7d 33 de 3d 47 22 13 3e 90 fb 05 bd ea 23 0b bd
       0.10849664 0.14368545 -0.03271061 -0.033969797
0000c0 d3 52 78 be ce df fe bc 0d 43 a3 3e 02 d6 63 3c
       -0.24250345 -0.031112578 0.31887093 0.013906004
0000d0 49 ed 90 bd 73 c1 43 3e 50 b9 2d bf 65 fa b7 3c
       -0.070765086 0.19116764 -0.6786089 0.022458265
0000e0 c7 07 90 be 01 78 8c be 75 70 2c be c1 28 ac 3d
       -0.28130934 -0.27435306 -0.16839774 0.08406211
0000f0 7f e0 0f 3c 70 21 30 3e a8 fe 4e 3e 0d ff 03 3f
       0.008781551 0.17200255 0.20214331 0.5156105
000100 b7 a2 39 be 8f 67 a1 3e df 81 4e 3e 35 bd 37 3d
       -0.18128477 0.3152432 0.2016673 0.044858176
000110 47 0b 9c 3d 10 56 85 bf 90 b5 1d be 7a e5 a2 3d
       0.076193385 -1.0416889 -0.15401292 0.079539254
000120 ba a8 10 bf 74 1b b5 3d 93 2b 4f bf 9d 64 98 bd
       -0.56507456 0.08843127 -0.80925864 -0.074410655
000130 29 33 16 be de eb 90 be f0 28 07 3e af c2 8d bd
       -0.14667954 -0.28304952 0.1319921 -0.069218986
000140 ac 68 f6 bb ae e3 7e be 04 4d c6 be d8 06 bd bd
       -0.007519802 -0.2489154 -0.38730633 -0.09229821
000150 c1 31 60 be 53 ad ff 3e 8d 13 c1 bd dd b3 07 bd
       -0.2189398 0.49936923 -0.09427557 -0.033130515
000160 c6 33 22 be 8a 87 01 bf 08 26 52 bb 83 a2 a5 be
       -0.15840062 -0.5059744 -0.0032066125 -0.3235055
000170 48 78 4a be d6 5e 45 3e c6 e3 d5 bd eb ac 10 3d
       -0.19772446 0.19274458 -0.10443835 0.035321157
000180 7f a9 43 3e 4b 3e 07 3d e1 74 21 3d b3 12 73 be
       0.19107626 0.03301839 0.039418105 -0.23737602
000190 8f 26 11 3d da 1b 3d 3e 67 e0 19 be e3 1a 98 be
       0.035437163 0.18467656 -0.15027009 -0.29708013
0001a0 ba c0 95 be 13 c0 08 bf 3e 3c a7 3d 89 2f 62 3f
       -0.292486 -0.5341808 0.08165787 0.8835378
0001b0 7d 9b 8e 3e 24 02 bb be 05 a0 64 3e 05 fe 89 be
       0.27853003 -0.3652507 0.22326668 -0.26951614
0001c0 91 5b 2f 3f ed ba 82 bd bf 20 32 3e ed 6a 19 3f
       0.68499094 -0.063833095 0.17395304 0.5992878
0001d0 33 8d 81 be a8 0b e3 bd 77 20 30 3f 1d 56 96 be
       -0.2530304 -0.11086208 0.6879954 -0.29362574
0001e0 95 68 9e bd 00 ba a6 3e 2a 61 56 3e 1e 3a 4e be
       -0.07734791 0.32563782 0.20935503 -0.20139357
0001f0 80 ab 25 3e 4b 22 bc be 16 af 02 bf 4f 82 ce bd
       0.16178703 -0.36744913 -0.5104841 -0.10083448
000200 ab ba 00 3e 07 b8 53 3e a7 71 84 bc 2b ae 82 be
       0.12571208 0.2067567 -0.016167475 -0.25523505
000210 3e 12 b7 3d 3e 75 cb 3e 48 55 46 3e e4 5b 05 be
       0.08939026 0.39737886 0.1936847 -0.13023335
000220 56 37 91 3d 97 ff c0 3e 1e 31 2a be b2 db 0b be
       0.070906326 0.37695 -0.16620299 -0.13658026
000230 63 bb 96 be 91 70 67 be e0 e7 67 be 6b cf 89 bd
       -0.2943984 -0.22601534 -0.22647047 -0.06729015
000240 77 9b 3a be 61 e1 09 be c2 06 39 3e bb 5f 39 be
       -0.18223368 -0.13464881 0.18068984 -0.18102925
000250 50 78 99 bd a8 da 95 bd 6e 18 0b be 09 23 06 bd
       -0.07493651 -0.07317096 -0.13583538 -0.032748256
000260 de d2 82 bd aa 9d 45 bc 6d a1 87 3c 7f d0 65 3e
       -0.06387876 -0.012061516 0.016556466 0.22442816
000270 b4 9b 58 bd 47 7e ca bd 38 aa 82 be 41 ab ac be
       -0.052882865 -0.09887367 -0.25520492 -0.33724406
000280 90 a8 3e be 82 ed f8 3b 41 fb 12 3d 6e 5a 67 3e
       -0.18618989 0.0075966725 0.035884146 0.2259309
000290 5c a9 6d be 37 06 27 bd 97 14 90 3d 27 34 60 3d
       -0.23209137 -0.04077741 0.07035177 0.054737236
0002a0 69 e6 11 3e 9f 76 4b 3e 8c 21 31 be ea e6 ca 3d
       0.14248051 0.19869469 -0.17297953 0.099073246
0002b0 08 c0 9c 3d 99 5c 88 bd 7c 02 f3 bd 5f ed ee 3e
       0.076538146 -0.066582866 -0.11865708 0.46665475
0002c0 00 30 a7 3e ca b1 92 bf f4 61 3a be a7 e4 eb bc
       0.3265381 -1.1460507 -0.18201429 -0.028795553
0002d0 38 1f 29 3f c9 16 2c be eb 7a 84 be 22 78 98 3e
       0.6606326 -0.16805567 -0.2587503 0.29779154
0002e0 dc 9e 29 3e c8 9a b8 be ea 6c 98 bd 4e 3d 15 be
       0.16564506 -0.3605559 -0.07442649 -0.14574167
0002f0 94 fa d6 be cd 7b c1 3e 51 99 a6 3d 1f bc a6 be
       -0.4198805 0.37789765 0.081347115 -0.325654
000300 54 fa 8f 3d 9d 8d 1f be f8 dd 04 bd 91 49 f7 be
       0.07030168 -0.15581365 -0.03243825 -0.48298314
000310 6b 69 6c bd dd 67 c9 3e 49 21 13 be 10 fe a4 bd
       -0.057717722 0.39337054 -0.14368166 -0.08056271
000320 d3 7a 45 be fb 97 ed be dd 67 b9 bd 8c 6d 9f bc
       -0.19285135 -0.46405014 -0.090530135 -0.019461416
000330 6e 6e 5c be d8 4e b1 3d 14 af 32 3e b4 2e 02 bf
       -0.215265 0.086576164 0.174496 -0.50852513
000340 a5 4c 97 bd 98 f3 83 3e 3f 08 8f be f2 ea b3 be
       -0.07387666 0.25771785 -0.2793598 -0.35140187
000350 50 cc fe bd 47 98 f6 be ec 6e 8a be 34 94 aa 3e
       -0.12441313 -0.48163053 -0.27037752 0.33316195
000360 05 68 89 be 4b ff 70 3c 6d c7 b8 3d 37 07 5a bd
       -0.26837173 0.014709304 0.090224124 -0.053229537
000370 09 5a 9e bd de 47 34 be 57 56 36 3e d2 21 2d 3e
       -0.077320166 -0.1760554 0.17806374 0.16907433
000380 69 13 86 be 93 2b 34 3e cb fd 16 3e 86 b2 96 3d
       -0.26186684 0.17594747 0.14745252 0.073582694
000390 2e 92 34 be b3 12 fa bd ed a6 c0 bd 39 16 60 bd
       -0.17633888 -0.12210598 -0.094068386 -0.054708693
0003a0 22 f9 76 be 7c 87 c6 3c ee 43 b1 bd 92 aa d7 3e
       -0.24118474 0.024234526 -0.08655535 0.42122322
0003b0 37 15 c6 3e ce 3c 27 be 29 37 06 3d fd 48 17 3e
       0.3868806 -0.16331789 0.03276745 0.14773937
0003c0 d9 68 88 3d 1e 17 c1 bd c9 20 15 be 6b 76 cf 3c
       0.06660623 -0.094282374 -0.14563288 0.02532502
0003d0 80 85 92 bc 71 f9 64 be 00 78 4e 3d f3 4c c4 3e
       -0.017885923 -0.2236078 0.05040741 0.38339958
0003e0 3b 35 2e bd 6e 7b 30 3e d6 66 25 be 56 f1 8e be
       -0.042531233 0.17234585 -0.1615251 -0.279185
0003f0 3a b7 94 be 52 a2 9e bd ef f3 93 bd 29 09 96 bc
       -0.2904604 -0.07745804 -0.07224261 -0.018314915

bias f4 [32]
000000 5c 9d 0a bd 3d f8 14 be 07 9a 66 3f 62 ac d2 be
       -0.033841476 -0.1454782 0.9007878 -0.41147143
000010 ea 68 81 3e 81 a0 c8 3d f8 3f 9f 3e d8 01 77 3f
       0.25275356 0.09796239 0.31103492 0.9648719
000020 43 35 a4 3f c0 15 2c bf 8a 18 a7 be 5e d1 a2 be
       1.2828754 -0.6722069 -0.3263591 -0.3180036
000030 a9 d1 82 3f 0e 23 70 3f 19 82 b8 3f 7b 25 59 be
       1.0220233 0.9380349 1.4414703 -0.21205704
000040 b9 42 b0 3f 00 44 94 3f e2 80 1e 3f 3c 56 85 3f
       1.3770362 1.1583252 0.6191541 1.0416942
000050 af 5b 90 3f 9e 36 52 3f 1b e5 65 3f 59 27 8a be
       1.127798 0.8211459 0.8980271 -0.26983145
000060 78 bd 02 bf c5 48 4f 3f cc 59 cd 3c 9d 0b a2 3f
       -0.51070356 0.8097041 0.025067233 1.2659794
000070 e1 03 ca 3d cd 29 a5 3e c5 a8 12 bf 2a 16 86 3e
       0.09864021 0.32258454 -0.5728877 0.26188785

weight f4 [32, 32]
000000 d0 6f cd bd e0 30 7d be 70 e0 8c 3e a9 fa b5 bd
       -0.10031092 -0.24725676 0.27514982 -0.088857
000010 15 f1 50 be ba 81 98 3d 56 c2 cc bd a3 53 5a 3d
       -0.20404465 0.074466184 -0.09998004 0.05330242
000020 f7 aa be 3e cb 15 ca be 05 df 18 be 57 a6 c6 3d
       0.3723981 -0.39469752 -0.14928825 0.096996956
000030 c5 72 8b 3e dd 40 55 3e 67 dd 86 3e 0b 48 cf be
       0.27236 0.20825525 0.26340792 -0.40484652
000040 ec 2c 35 3e 3c b2 b1 3e 70 a4 a5 3d 58 62 54 3e
       0.17692918 0.34706295 0.080880046 0.2074064
000050 d0 a6 e9 3e 5c 3f 35 3e fe ef c3 3e e6 8d 36 be
       0.4563508 0.17699951 0.38269037 -0.17827567
000060 2d ae 1c bf 97 7e d8 3d 80 48 df bd 68 c0 42 3e
       -0.6120327 0.1057102 -0.109025 0.1901871
000070 42 c2 2e be 4f 29 7b 3e 6b c3 3e 3e 7b 1d d9 3e
       -0.17066291 0.24527477 0.18629234 0.42405304
000080 f7 5d ef 3c 30 1c bf 3e ab 88 89 3d fc 64 8a 3e
       0.02921961 0.37326193 0.067155205 0.2703017
000090 51 a6 55 bf f7 5a c8 3d c7 df c6 be c5 06 9b bd
       -0.83456904 0.09782975 -0.38842604 -0.075696506
0000a0 01 d1 c4 3d 29 85 fa 3d 32 88 03 3d cd 83 09 be
       0.09610177 0.122324295 0.032112308 -0.13429184
0000b0 33 a3 82 3e 4a bb 8f bd 05 7f ac 3e 55 ac 03 3d
       0.25515136 -0.070181444 0.33690658 0.03214677
0000c0 95 fb ff 3d 78 e1 79 3e ba 65 9e be 50 4f ac 3e
       0.12499157 0.24402416 -0.30936986 0.3365426
0000d0 2b d8 44 be 76 df 19 be 14 5a 5b bd 97 8c 84 3e
       -0.19223087 -0.1502665 -0.053552702 0.25888512
0000e0 1e b2 4c 3e a2 82 8c 3e c0 d9 2a bd 68 4c 4f 3e
       0.19989821 0.27443415 -0.04171157 0.2024399
0000f0 85 8d 26 be 20 76 80 be f0 a5 fd be 80 67 a6 be
       -0.16264923 -0.25090122 -0.49540663 -0.3250084
000100 5e 5e 95 3c c7 0c 02 3e a3 56 60 be 85 bb eb be
       0.018233474 0.12700187 -0.2190805 -0.46041504
000110 0d 0a b2 3c 8d 24 09 3e 90 14 53 bf 77 18 80 3e
       0.021733308 0.1339285 -0.8245325 0.25018665
000120 48 1d f5 bc 88 e6 c3 be 5c 06 88 3e dd 0f 62 be
       -0.029921189 -0.3826182 0.26567352 -0.22076364
000130 c1 7f 53 3e b5 aa 8c 3e f6 8f 9b 3d 64 e7 e8 bd
       0.20654203 0.2747399 0.07595818 -0.11372259
000140 06 94 17 3e 69 34 26 3e 83 1e 3b bf ad 09 aa 3e
       0.1480256 0.1623093 -0.7309343 0.33210507
000150 c8 45 ca be 95 bf e2 3d 5e 7b 49 3e e9 6c e4 3d
       -0.39506364 0.110716976 0.19675967 0.111535855
000160 5e 8b 6c 3e b6 7e 87 be 1d d7 30 3e 42 5d b1 3e
       0.2310004 -0.2646386 0.17269559 0.34641463
000170 0b eb b0 3e 52 d9 73 be 80 97 24 bf 9c b2 be be
       0.34554324 -0.2381337 -0.6429367 -0.37245643
000180 6e 6e a5 be 79 13 fc be 4b 87 85 3d c4 37 08 bf
       -0.32310814 -0.49233606 0.06519946 -0.5321009
000190 67 dc 7c 3e cf 37 6f bf cf 7a 8d 3e 7f 08 20 3e
       0.24693452 -0.9344453 0.27632758 0.15628241
0001a0 ae c9 d0 3d 62 ee 2c bf 35 ac 33 bf 57 3b 5e be
       0.10194717 -0.67551243 -0.7018464 -0.21702324
0001b0 68 d7 86 3c d0 77 54 3e 53 07 ba 3d c0 d8 1e bf
       0.016460136 0.2074883 0.09083428 -0.62049484
0001c0 e3 8c 28 3e 7c 7e e3 3d 71 c1 b4 3e 59 ca af bc
       0.16459994 0.11108109 0.35303834 -0.021458792
0001d0 d2 4a d1 3e a0 57 91 3d cf 16 b2 3d a0 87 17 bf
       0.40877396 0.07096791 0.08695757 -0.5919132
0001e0 76 0f 2a bf 56 1f 18 3e 5f 78 28 bf 9d 30 89 3e
       -0.6642984 0.14855704 -0.6580867 0.26794901
0001f0 43 5f 87 3d e5 15 ee 3e 9f 03 0d bd c9 6c 44 bd
       0.066099666 0.4650108 -0.03442728 -0.047955308
000200 09 b7 22 3c ca f3 42 bd 91 99 90 3e 28 08 f5 bd
       0.009931334 -0.047595777 0.28242162 -0.11964446
000210 31 e7 95 bd 34 08 ff 39 5e ec 83 bd 95 1b b2 be
       -0.07319487 0.00048643502 -0.06441568 -0.34786668
000220 ef 36 6a 3d 6e 83 29 3d dc 61 94 3e eb 38 47 bd
       0.057181295 0.041385107 0.2898091 -0.048638266
000230 9e cb 50 bd 68 f1 af 3d df 20 81 3f 79 b1 87 be
       -0.050975434 0.085909665 1.0088156 -0.26502588
000240 0b 2d 31 3f cf 56 7b 3e 62 ef 44 bd f0 98 a2 3f
       0.69209355 0.24544834 -0.048079856 1.2702923
000250 1f 9b b4 bd 83 de 20 be bd df 25 be e5 a4 ac 3d
       -0.088186495 -0.15709881 -0.1619863 0.08429889
000260 ab 7a 23 be df 39 32 bd a2 ea 2c 3e f9 ae 06 3f
       -0.15964763 -0.04351222 0.1688638 0.5261074
000270 85 9c 30 3e 4a c3 56 bd df 28 91 be 5f 28 3b bd
       0.17247207 -0.052432336 -0.28351495 -0.045692798
000280 e5 63 9f be 82 00 38 3e b8 1b 3e 3e 72 57 83 be
       -0.311309 0.17968944 0.18565261 -0.25652653
000290 90 3d 54 be 5c 3b 8c 3e 2f 23 9c be 3d aa b4 3e
       -0.20726609 0.27389038 -0.30495593 0.35286132
0002a0 a5 26 b1 3d 0f 6f 78 3d c5 1f 3f be 8f 59 40 bd
       0.08649949 0.06065279 -0.18664463 -0.04696041
0002b0 cb 0e 5f bd fc c1 91 be 9d b6 17 3e 0d 19 76 bb
       -0.054457467 -0.2846831 0.14815755 -0.0037551553
0002c0 54 2e ee 38 e2 96 91 3e a1 ff 48 be 34 58 c0 3d
       0.00011357354 0.28435427 -0.19628765 0.093918234
0002d0 21 58 e5 be 08 61 c0 39 94 0f 92 3d a6 10 21 be
       -0.447938 0.00036693388 0.071318775 -0.15729007
0002e0 71 2c 83 be a1 b8 38 bd 44 9e 9b 3e 9e 3a 70 3e
       -0.25619844 -0.04509795 0.30394185 0.2345986
0002f0 27 20 38 3e aa b5 7e be f0 57 5d be 73 e9 b3 be
       0.17981015 -0.24873987 -0.21615577 -0.35139045
000300 05 2f 70 be 1a 5f 6a be 21 3b b3 3e 78 20 3c 3d
       -0.23455437 -0.22887841 0.3500605 0.045929402
000310 dc 1e b8 3d 37 d1 12 bf c1 d4 bf 3d 77 8c 17 3e
       0.08990261 -0.57350487 0.093667515 0.14799677
000320 6b f8 83 3e ca 5a 03 bf 43 78 82 be 08 b6 8a be
       0.25775465 -0.5131041 -0.25482377 -0.27092004
000330 97 da f9 3c 6c 6b 82 3e 45 93 c8 3e fe 9d d2 be
       0.03049974 0.2547258 0.39174858 -0.41136163
000340 db f4 e4 3e e0 44 72 3e af 00 17 3e 98 55 34 3e
       0.4471806 0.23659086 0.14746355 0.17610776
000350 20 6d 00 3f 00 bc a5 3c 91 89 2c 3e 31 3d b1 be
       0.5016651 0.020231247 0.16849352 -0.34616998
000360 03 5c 39 bf bf c2 87 3e fd 1e c3 be aa f2 f2 3e
       -0.72406024 0.26515767 -0.3810958 0.47450763
000370 77 f6 6f be 11 72 f3 3e e7 14 8e 3e f5 99 2b bd
       -0.23433863 0.47547963 0.27750322 -0.04189487
000380 99 69 a1 bd 6c 13 bb 3e b5 ac b0 3e 93 0e 00 3f
       -0.07881469 0.36538255 0.34506765 0.5002224
000390 07 23 18 bf c2 2e ba be 04 39 ad be c2 cf 9a bc
       -0.5942845 -0.36363798 -0.33832562 -0.018897895
0003a0 11 01 12 bd d1 eb 43 3e 9f 1b 3f 3e ce 6d 9b be
       -0.03564555 0.19132926 0.1866288 -0.30357212
0003b0 66 e9 86 bd 05 ab c8 be 10 11 45 3e 91 9c 00 3c
       -0.06587486 -0.39192978 0.1924479 0.007849828
0003c0 c7 9e 0c 3e 6b db d8 3e ce 87 26 bf 10 d3 f6 3d
       0.13732444 0.42354903 -0.6505097 0.12051976
0003d0 24 f7 34 3e 92 dd 5d bf e6 c7 97 be ab 42 1c 3f
       0.17672402 -0.86666214 -0.29644698 0.6103923
0003e0 93 e6 95 3e 71 c2 bb 3e 51 45 00 3d 0a 18 15 3e
       0.29277477 0.36671785 0.031316105 0.14559951
0003f0 93 87 41 be 55 0f 00 be 15 6d 07 3e de 9e ce bf
       -0.18899374 -0.12505849 0.13225205 -1.6142232

bias f4 [32]
000000 ce 8d 73 3f ae 9a 18 be 55 28 cf 3e 06 c8 63 3f
       0.9513825 -0.14902756 0.40460458 0.88977087
000010 1f 46 f9 3f 37 76 c5 bd 76 f6 8c 3f d2 b2 c5 be
       1.9474524 -0.09641688 1.1012714 -0.38612992
000020 f5 77 57 3e 11 6b a5 be e7 c5 99 3f 2e 05 4e 3f
       0.21041854 -0.32308248 1.201352 0.80476654
000030 bb ba 99 be dd 67 52 3e d6 ae 1d 3e 91 b0 d7 bd
       -0.30025277 0.20547433 0.15398726 -0.10531724
000040 0b 75 45 3e 9f 9c 37 3f f7 a8 80 3f 4d 42 89 3f
       0.1928293 0.7172336 1.0051564 1.0723358
000050 0d cb 9d 3f 3e 36 4a be 4f 44 f8 bd 7f 73 b3 bc
       1.2327591 -0.19747254 -0.12122404 -0.021905659
000060 cc 04 23 be 70 82 65 3d 3d 5b 49 be c6 a6 b4 3e
       -0.15919799 0.056032598 -0.19663711 0.35283488
000070 b8 a7 32 be b6 9f 7a 3e 2d 12 e4 bd 0e 9a c4 3e
       -0.17446792 0.24474987 -0.11136279 0.38398784
